#loc25 = loc("<stdin>":27:26)
#loc26 = loc("<stdin>":27:116)
#loc27 = loc("<stdin>":27:204)
#loc28 = loc("<stdin>":27:294)
#loc2458 = loc("<stdin>":2457:26)
#loc2459 = loc("<stdin>":2457:117)
#loc2460 = loc("<stdin>":2457:206)
#loc2461 = loc("<stdin>":2457:295)
#loc2462 = loc("<stdin>":2457:386)
#loc4676 = loc("<stdin>":4672:10)
#loc4677 = loc("<stdin>":4672:20)
#loc4678 = loc("<stdin>":4672:32)
#map = affine_map<(d0, d1, d2, d3, d4) -> (d0, d1, d2, d4)>
#map1 = affine_map<(d0, d1, d2, d3, d4) -> (d0, d1, d2, d3, d4)>
module @module {
  util.global private @__auto.constant_256_256_torch.float16 = dense_resource<__auto.constant_256_256_torch.float16> : tensor<256x256xf16> loc(#loc1)
  util.global private @__auto.constant_256_256_torch.float16$1 = dense_resource<__auto.constant_256_256_torch.float16$1> : tensor<256x256xf16> loc(#loc2)
  util.global private @__auto.constant_128_256_torch.float16 = dense_resource<__auto.constant_128_256_torch.float16> : tensor<128x256xf16> loc(#loc3)
  util.global private @__auto.constant_128_256_torch.float16$1 = dense_resource<__auto.constant_128_256_torch.float16$1> : tensor<128x256xf16> loc(#loc4)
  util.global private @__auto.constant_256_256_torch.float16$2 = dense_resource<__auto.constant_256_256_torch.float16$2> : tensor<256x256xf16> loc(#loc5)
  util.global private @__auto.constant_23_256_torch.float16 = dense_resource<__auto.constant_23_256_torch.float16> : tensor<23x256xf16> loc(#loc6)
  util.global private @__auto.constant_23_256_torch.float16$1 = dense_resource<__auto.constant_23_256_torch.float16$1> : tensor<23x256xf16> loc(#loc7)
  util.global private @__auto.constant_256_23_torch.float16 = dense_resource<__auto.constant_256_23_torch.float16> : tensor<256x23xf16> loc(#loc8)
  util.global private @__auto.constant_256_256_torch.float16$3 = dense_resource<__auto.constant_256_256_torch.float16$3> : tensor<256x256xf16> loc(#loc9)
  util.global private @__auto.constant_128_256_torch.float16$2 = dense_resource<__auto.constant_128_256_torch.float16$2> : tensor<128x256xf16> loc(#loc10)
  util.global private @__auto.constant_128_256_torch.float16$3 = dense_resource<__auto.constant_128_256_torch.float16$3> : tensor<128x256xf16> loc(#loc11)
  util.global private @__auto.constant_256_256_torch.float16$4 = dense_resource<__auto.constant_256_256_torch.float16$4> : tensor<256x256xf16> loc(#loc12)
  util.global private @__auto.constant_23_256_torch.float16$2 = dense_resource<__auto.constant_23_256_torch.float16$2> : tensor<23x256xf16> loc(#loc13)
  util.global private @__auto.constant_23_256_torch.float16$3 = dense_resource<__auto.constant_23_256_torch.float16$3> : tensor<23x256xf16> loc(#loc14)
  util.global private @__auto.constant_256_23_torch.float16$1 = dense_resource<__auto.constant_256_23_torch.float16$1> : tensor<256x23xf16> loc(#loc15)
  util.global private @__auto.constant_256_256_torch.float16$5 = dense_resource<__auto.constant_256_256_torch.float16$5> : tensor<256x256xf16> loc(#loc16)
  util.global private @__auto.constant_128_256_torch.float16$4 = dense_resource<__auto.constant_128_256_torch.float16$4> : tensor<128x256xf16> loc(#loc17)
  util.global private @__auto.constant_128_256_torch.float16$5 = dense_resource<__auto.constant_128_256_torch.float16$5> : tensor<128x256xf16> loc(#loc18)
  util.global private @__auto.constant_256_256_torch.float16$6 = dense_resource<__auto.constant_256_256_torch.float16$6> : tensor<256x256xf16> loc(#loc19)
  util.global private @__auto.constant_23_256_torch.float16$4 = dense_resource<__auto.constant_23_256_torch.float16$4> : tensor<23x256xf16> loc(#loc20)
  util.global private @__auto.constant_23_256_torch.float16$5 = dense_resource<__auto.constant_23_256_torch.float16$5> : tensor<23x256xf16> loc(#loc21)
  util.global private @__auto.constant_256_23_torch.float16$2 = dense_resource<__auto.constant_256_23_torch.float16$2> : tensor<256x23xf16> loc(#loc22)
  util.global private @__auto.constant_256_256_torch.float16$7 = dense_resource<__auto.constant_256_256_torch.float16$7> : tensor<256x256xf16> loc(#loc23)
  func.func @prefill_bs4(%arg0: !torch.vtensor<[4,?],si64> {iree.abi.affinity = #hal.device.promise<@__device_0>} loc("<stdin>":27:26), %arg1: !torch.vtensor<[4],si64> {iree.abi.affinity = #hal.device.promise<@__device_0>} loc("<stdin>":27:116), %arg2: !torch.vtensor<[4,?],si64> {iree.abi.affinity = #hal.device.promise<@__device_0>} loc("<stdin>":27:204), %arg3: !torch.tensor<[?,12288],f16> {iree.abi.affinity = #hal.device.promise<@__device_0>} loc("<stdin>":27:294)) -> !torch.vtensor<[4,?,256],f16> attributes {torch.assume_strict_symbolic_shapes} {
    %__auto.constant_256_256_torch.float16 = util.global.load @__auto.constant_256_256_torch.float16 : tensor<256x256xf16> loc(#loc29)
    %0 = torch_c.from_builtin_tensor %__auto.constant_256_256_torch.float16 : tensor<256x256xf16> -> !torch.vtensor<[256,256],f16> loc(#loc30)
    %1 = torch.vtensor.literal(dense_resource<torch_tensor_256_torch.float32> : tensor<256xf32>) : !torch.vtensor<[256],f32> loc(#loc31)
    %__auto.constant_256_256_torch.float16$1 = util.global.load @__auto.constant_256_256_torch.float16$1 : tensor<256x256xf16> loc(#loc32)
    %2 = torch_c.from_builtin_tensor %__auto.constant_256_256_torch.float16$1 : tensor<256x256xf16> -> !torch.vtensor<[256,256],f16> loc(#loc33)
    %__auto.constant_128_256_torch.float16 = util.global.load @__auto.constant_128_256_torch.float16 : tensor<128x256xf16> loc(#loc34)
    %3 = torch_c.from_builtin_tensor %__auto.constant_128_256_torch.float16 : tensor<128x256xf16> -> !torch.vtensor<[128,256],f16> loc(#loc35)
    %__auto.constant_128_256_torch.float16$1 = util.global.load @__auto.constant_128_256_torch.float16$1 : tensor<128x256xf16> loc(#loc36)
    %4 = torch_c.from_builtin_tensor %__auto.constant_128_256_torch.float16$1 : tensor<128x256xf16> -> !torch.vtensor<[128,256],f16> loc(#loc37)
    %5 = torch.vtensor.literal(dense<1.000000e+00> : tensor<f32>) : !torch.vtensor<[],f32> loc(#loc38)
    %6 = torch.vtensor.literal(dense<1.000000e+00> : tensor<f32>) : !torch.vtensor<[],f32> loc(#loc39)
    %7 = torch.vtensor.literal(dense<0xFC00> : tensor<f16>) : !torch.vtensor<[],f16> loc(#loc40)
    %__auto.constant_256_256_torch.float16$2 = util.global.load @__auto.constant_256_256_torch.float16$2 : tensor<256x256xf16> loc(#loc41)
    %8 = torch_c.from_builtin_tensor %__auto.constant_256_256_torch.float16$2 : tensor<256x256xf16> -> !torch.vtensor<[256,256],f16> loc(#loc42)
    %9 = torch.vtensor.literal(dense_resource<torch_tensor_256_torch.float32_1> : tensor<256xf32>) : !torch.vtensor<[256],f32> loc(#loc43)
    %__auto.constant_23_256_torch.float16 = util.global.load @__auto.constant_23_256_torch.float16 : tensor<23x256xf16> loc(#loc44)
    %10 = torch_c.from_builtin_tensor %__auto.constant_23_256_torch.float16 : tensor<23x256xf16> -> !torch.vtensor<[23,256],f16> loc(#loc45)
    %__auto.constant_23_256_torch.float16$1 = util.global.load @__auto.constant_23_256_torch.float16$1 : tensor<23x256xf16> loc(#loc46)
    %11 = torch_c.from_builtin_tensor %__auto.constant_23_256_torch.float16$1 : tensor<23x256xf16> -> !torch.vtensor<[23,256],f16> loc(#loc47)
    %__auto.constant_256_23_torch.float16 = util.global.load @__auto.constant_256_23_torch.float16 : tensor<256x23xf16> loc(#loc48)
    %12 = torch_c.from_builtin_tensor %__auto.constant_256_23_torch.float16 : tensor<256x23xf16> -> !torch.vtensor<[256,23],f16> loc(#loc49)
    %13 = torch.vtensor.literal(dense_resource<torch_tensor_256_torch.float32_2> : tensor<256xf32>) : !torch.vtensor<[256],f32> loc(#loc50)
    %__auto.constant_256_256_torch.float16$3 = util.global.load @__auto.constant_256_256_torch.float16$3 : tensor<256x256xf16> loc(#loc51)
    %14 = torch_c.from_builtin_tensor %__auto.constant_256_256_torch.float16$3 : tensor<256x256xf16> -> !torch.vtensor<[256,256],f16> loc(#loc52)
    %__auto.constant_128_256_torch.float16$2 = util.global.load @__auto.constant_128_256_torch.float16$2 : tensor<128x256xf16> loc(#loc53)
    %15 = torch_c.from_builtin_tensor %__auto.constant_128_256_torch.float16$2 : tensor<128x256xf16> -> !torch.vtensor<[128,256],f16> loc(#loc54)
    %__auto.constant_128_256_torch.float16$3 = util.global.load @__auto.constant_128_256_torch.float16$3 : tensor<128x256xf16> loc(#loc55)
    %16 = torch_c.from_builtin_tensor %__auto.constant_128_256_torch.float16$3 : tensor<128x256xf16> -> !torch.vtensor<[128,256],f16> loc(#loc56)
    %17 = torch.vtensor.literal(dense<1.000000e+00> : tensor<f32>) : !torch.vtensor<[],f32> loc(#loc57)
    %18 = torch.vtensor.literal(dense<1.000000e+00> : tensor<f32>) : !torch.vtensor<[],f32> loc(#loc58)
    %19 = torch.vtensor.literal(dense<0xFC00> : tensor<f16>) : !torch.vtensor<[],f16> loc(#loc59)
    %__auto.constant_256_256_torch.float16$4 = util.global.load @__auto.constant_256_256_torch.float16$4 : tensor<256x256xf16> loc(#loc60)
    %20 = torch_c.from_builtin_tensor %__auto.constant_256_256_torch.float16$4 : tensor<256x256xf16> -> !torch.vtensor<[256,256],f16> loc(#loc61)
    %21 = torch.vtensor.literal(dense_resource<torch_tensor_256_torch.float32_3> : tensor<256xf32>) : !torch.vtensor<[256],f32> loc(#loc62)
    %__auto.constant_23_256_torch.float16$2 = util.global.load @__auto.constant_23_256_torch.float16$2 : tensor<23x256xf16> loc(#loc63)
    %22 = torch_c.from_builtin_tensor %__auto.constant_23_256_torch.float16$2 : tensor<23x256xf16> -> !torch.vtensor<[23,256],f16> loc(#loc64)
    %__auto.constant_23_256_torch.float16$3 = util.global.load @__auto.constant_23_256_torch.float16$3 : tensor<23x256xf16> loc(#loc65)
    %23 = torch_c.from_builtin_tensor %__auto.constant_23_256_torch.float16$3 : tensor<23x256xf16> -> !torch.vtensor<[23,256],f16> loc(#loc66)
    %__auto.constant_256_23_torch.float16$1 = util.global.load @__auto.constant_256_23_torch.float16$1 : tensor<256x23xf16> loc(#loc67)
    %24 = torch_c.from_builtin_tensor %__auto.constant_256_23_torch.float16$1 : tensor<256x23xf16> -> !torch.vtensor<[256,23],f16> loc(#loc68)
    %25 = torch.vtensor.literal(dense_resource<torch_tensor_256_torch.float32_4> : tensor<256xf32>) : !torch.vtensor<[256],f32> loc(#loc69)
    %__auto.constant_256_256_torch.float16$5 = util.global.load @__auto.constant_256_256_torch.float16$5 : tensor<256x256xf16> loc(#loc70)
    %26 = torch_c.from_builtin_tensor %__auto.constant_256_256_torch.float16$5 : tensor<256x256xf16> -> !torch.vtensor<[256,256],f16> loc(#loc71)
    %__auto.constant_128_256_torch.float16$4 = util.global.load @__auto.constant_128_256_torch.float16$4 : tensor<128x256xf16> loc(#loc72)
    %27 = torch_c.from_builtin_tensor %__auto.constant_128_256_torch.float16$4 : tensor<128x256xf16> -> !torch.vtensor<[128,256],f16> loc(#loc73)
    %__auto.constant_128_256_torch.float16$5 = util.global.load @__auto.constant_128_256_torch.float16$5 : tensor<128x256xf16> loc(#loc74)
    %28 = torch_c.from_builtin_tensor %__auto.constant_128_256_torch.float16$5 : tensor<128x256xf16> -> !torch.vtensor<[128,256],f16> loc(#loc75)
    %29 = torch.vtensor.literal(dense<1.000000e+00> : tensor<f32>) : !torch.vtensor<[],f32> loc(#loc76)
    %30 = torch.vtensor.literal(dense<1.000000e+00> : tensor<f32>) : !torch.vtensor<[],f32> loc(#loc77)
    %31 = torch.vtensor.literal(dense<0xFC00> : tensor<f16>) : !torch.vtensor<[],f16> loc(#loc78)
    %__auto.constant_256_256_torch.float16$6 = util.global.load @__auto.constant_256_256_torch.float16$6 : tensor<256x256xf16> loc(#loc79)
    %32 = torch_c.from_builtin_tensor %__auto.constant_256_256_torch.float16$6 : tensor<256x256xf16> -> !torch.vtensor<[256,256],f16> loc(#loc80)
    %33 = torch.vtensor.literal(dense_resource<torch_tensor_256_torch.float32_5> : tensor<256xf32>) : !torch.vtensor<[256],f32> loc(#loc81)
    %__auto.constant_23_256_torch.float16$4 = util.global.load @__auto.constant_23_256_torch.float16$4 : tensor<23x256xf16> loc(#loc82)
    %34 = torch_c.from_builtin_tensor %__auto.constant_23_256_torch.float16$4 : tensor<23x256xf16> -> !torch.vtensor<[23,256],f16> loc(#loc83)
    %__auto.constant_23_256_torch.float16$5 = util.global.load @__auto.constant_23_256_torch.float16$5 : tensor<23x256xf16> loc(#loc84)
    %35 = torch_c.from_builtin_tensor %__auto.constant_23_256_torch.float16$5 : tensor<23x256xf16> -> !torch.vtensor<[23,256],f16> loc(#loc85)
    %__auto.constant_256_23_torch.float16$2 = util.global.load @__auto.constant_256_23_torch.float16$2 : tensor<256x23xf16> loc(#loc86)
    %36 = torch_c.from_builtin_tensor %__auto.constant_256_23_torch.float16$2 : tensor<256x23xf16> -> !torch.vtensor<[256,23],f16> loc(#loc87)
    %37 = torch.vtensor.literal(dense_resource<torch_tensor_1_256_torch.float32> : tensor<1x256xf32>) : !torch.vtensor<[1,256],f32> loc(#loc88)
    %__auto.constant_256_256_torch.float16$7 = util.global.load @__auto.constant_256_256_torch.float16$7 : tensor<256x256xf16> loc(#loc89)
    %38 = torch_c.from_builtin_tensor %__auto.constant_256_256_torch.float16$7 : tensor<256x256xf16> -> !torch.vtensor<[256,256],f16> loc(#loc90)
    %39 = torch.copy.to_vtensor %arg3 : !torch.vtensor<[?,12288],f16> loc(#loc91)
    %40 = torch.symbolic_int "16*s1" {min_val = 32, max_val = 112} : !torch.int loc(#loc92)
    %41 = torch.symbolic_int "s1" {min_val = 2, max_val = 7} : !torch.int loc(#loc93)
    %42 = torch.symbolic_int "s2" {min_val = 0, max_val = 9223372036854775807} : !torch.int loc(#loc94)
    torch.bind_symbolic_shape %arg0, [%41], affine_map<()[s0] -> (4, s0 * 16)> : !torch.vtensor<[4,?],si64> loc(#loc95)
    torch.bind_symbolic_shape %arg2, [%41], affine_map<()[s0] -> (4, s0)> : !torch.vtensor<[4,?],si64> loc(#loc96)
    torch.bind_symbolic_shape %39, [%42], affine_map<()[s0] -> (s0, 12288)> : !torch.vtensor<[?,12288],f16> loc(#loc97)
    %int1 = torch.constant.int 1 loc(#loc98)
    %43 = torch.aten.size.int %arg2, %int1 : !torch.vtensor<[4,?],si64>, !torch.int -> !torch.int loc(#loc99)
    %int0 = torch.constant.int 0 loc(#loc100)
    %44 = torch.aten.size.int %39, %int0 : !torch.vtensor<[?,12288],f16>, !torch.int -> !torch.int loc(#loc101)
    %int5 = torch.constant.int 5 loc(#loc102)
    %45 = torch.prims.convert_element_type %0, %int5 : !torch.vtensor<[256,256],f16>, !torch.int -> !torch.vtensor<[256,256],f16> loc(#loc103)
    %int-1 = torch.constant.int -1 loc(#loc104)
    %false = torch.constant.bool false loc(#loc105)
    %false_0 = torch.constant.bool false loc(#loc106)
    %46 = torch.aten.embedding %45, %arg0, %int-1, %false, %false_0 : !torch.vtensor<[256,256],f16>, !torch.vtensor<[4,?],si64>, !torch.int, !torch.bool, !torch.bool -> !torch.vtensor<[4,?,256],f16> loc(#loc107)
    torch.bind_symbolic_shape %46, [%41], affine_map<()[s0] -> (4, s0 * 16, 256)> : !torch.vtensor<[4,?,256],f16> loc(#loc108)
    %int1_1 = torch.constant.int 1 loc(#loc109)
    %47 = torch.aten.size.int %arg0, %int1_1 : !torch.vtensor<[4,?],si64>, !torch.int -> !torch.int loc(#loc110)
    %int6 = torch.constant.int 6 loc(#loc111)
    %48 = torch.prims.convert_element_type %46, %int6 : !torch.vtensor<[4,?,256],f16>, !torch.int -> !torch.vtensor<[4,?,256],f32> loc(#loc112)
    torch.bind_symbolic_shape %48, [%41], affine_map<()[s0] -> (4, s0 * 16, 256)> : !torch.vtensor<[4,?,256],f32> loc(#loc113)
    %int2 = torch.constant.int 2 loc(#loc114)
    %49 = torch.aten.pow.Tensor_Scalar %48, %int2 : !torch.vtensor<[4,?,256],f32>, !torch.int -> !torch.vtensor<[4,?,256],f32> loc(#loc115)
    torch.bind_symbolic_shape %49, [%41], affine_map<()[s0] -> (4, s0 * 16, 256)> : !torch.vtensor<[4,?,256],f32> loc(#loc116)
    %int-1_2 = torch.constant.int -1 loc(#loc117)
    %50 = torch.prim.ListConstruct %int-1_2 : (!torch.int) -> !torch.list<int> loc(#loc118)
    %true = torch.constant.bool true loc(#loc119)
    %none = torch.constant.none loc(#loc120)
    %51 = torch.aten.mean.dim %49, %50, %true, %none : !torch.vtensor<[4,?,256],f32>, !torch.list<int>, !torch.bool, !torch.none -> !torch.vtensor<[4,?,1],f32> loc(#loc121)
    torch.bind_symbolic_shape %51, [%41], affine_map<()[s0] -> (4, s0 * 16, 1)> : !torch.vtensor<[4,?,1],f32> loc(#loc122)
    %float1.000000e-02 = torch.constant.float 1.000000e-02 loc(#loc123)
    %int1_3 = torch.constant.int 1 loc(#loc124)
    %52 = torch.aten.add.Scalar %51, %float1.000000e-02, %int1_3 : !torch.vtensor<[4,?,1],f32>, !torch.float, !torch.int -> !torch.vtensor<[4,?,1],f32> loc(#loc125)
    torch.bind_symbolic_shape %52, [%41], affine_map<()[s0] -> (4, s0 * 16, 1)> : !torch.vtensor<[4,?,1],f32> loc(#loc126)
    %53 = torch.aten.rsqrt %52 : !torch.vtensor<[4,?,1],f32> -> !torch.vtensor<[4,?,1],f32> loc(#loc127)
    torch.bind_symbolic_shape %53, [%41], affine_map<()[s0] -> (4, s0 * 16, 1)> : !torch.vtensor<[4,?,1],f32> loc(#loc128)
    %54 = torch.aten.mul.Tensor %48, %53 : !torch.vtensor<[4,?,256],f32>, !torch.vtensor<[4,?,1],f32> -> !torch.vtensor<[4,?,256],f32> loc(#loc129)
    torch.bind_symbolic_shape %54, [%41], affine_map<()[s0] -> (4, s0 * 16, 256)> : !torch.vtensor<[4,?,256],f32> loc(#loc130)
    %int5_4 = torch.constant.int 5 loc(#loc131)
    %55 = torch.prims.convert_element_type %54, %int5_4 : !torch.vtensor<[4,?,256],f32>, !torch.int -> !torch.vtensor<[4,?,256],f16> loc(#loc132)
    torch.bind_symbolic_shape %55, [%41], affine_map<()[s0] -> (4, s0 * 16, 256)> : !torch.vtensor<[4,?,256],f16> loc(#loc133)
    %56 = torch.aten.mul.Tensor %1, %55 : !torch.vtensor<[256],f32>, !torch.vtensor<[4,?,256],f16> -> !torch.vtensor<[4,?,256],f32> loc(#loc134)
    torch.bind_symbolic_shape %56, [%41], affine_map<()[s0] -> (4, s0 * 16, 256)> : !torch.vtensor<[4,?,256],f32> loc(#loc135)
    %int5_5 = torch.constant.int 5 loc(#loc136)
    %57 = torch.prims.convert_element_type %56, %int5_5 : !torch.vtensor<[4,?,256],f32>, !torch.int -> !torch.vtensor<[4,?,256],f16> loc(#loc137)
    torch.bind_symbolic_shape %57, [%41], affine_map<()[s0] -> (4, s0 * 16, 256)> : !torch.vtensor<[4,?,256],f16> loc(#loc138)
    %int-2 = torch.constant.int -2 loc(#loc139)
    %int-1_6 = torch.constant.int -1 loc(#loc140)
    %58 = torch.aten.transpose.int %2, %int-2, %int-1_6 : !torch.vtensor<[256,256],f16>, !torch.int, !torch.int -> !torch.vtensor<[256,256],f16> loc(#loc141)
    %int5_7 = torch.constant.int 5 loc(#loc142)
    %59 = torch.prims.convert_element_type %58, %int5_7 : !torch.vtensor<[256,256],f16>, !torch.int -> !torch.vtensor<[256,256],f16> loc(#loc143)
    %int4 = torch.constant.int 4 loc(#loc144)
    %60 = torch.aten.mul.int %int4, %47 : !torch.int, !torch.int -> !torch.int loc(#loc145)
    %int256 = torch.constant.int 256 loc(#loc146)
    %61 = torch.prim.ListConstruct %60, %int256 : (!torch.int, !torch.int) -> !torch.list<int> loc(#loc147)
    %62 = torch.aten.view %57, %61 : !torch.vtensor<[4,?,256],f16>, !torch.list<int> -> !torch.vtensor<[?,256],f16> loc(#loc148)
    torch.bind_symbolic_shape %62, [%41], affine_map<()[s0] -> (s0 * 64, 256)> : !torch.vtensor<[?,256],f16> loc(#loc149)
    %63 = torch.aten.matmul %62, %59 : !torch.vtensor<[?,256],f16>, !torch.vtensor<[256,256],f16> -> !torch.vtensor<[?,256],f16> loc(#loc150)
    torch.bind_symbolic_shape %63, [%41], affine_map<()[s0] -> (s0 * 64, 256)> : !torch.vtensor<[?,256],f16> loc(#loc151)
    %int4_8 = torch.constant.int 4 loc(#loc152)
    %int256_9 = torch.constant.int 256 loc(#loc153)
    %64 = torch.prim.ListConstruct %int4_8, %47, %int256_9 : (!torch.int, !torch.int, !torch.int) -> !torch.list<int> loc(#loc154)
    %65 = torch.aten.view %63, %64 : !torch.vtensor<[?,256],f16>, !torch.list<int> -> !torch.vtensor<[4,?,256],f16> loc(#loc155)
    torch.bind_symbolic_shape %65, [%41], affine_map<()[s0] -> (4, s0 * 16, 256)> : !torch.vtensor<[4,?,256],f16> loc(#loc156)
    %int-2_10 = torch.constant.int -2 loc(#loc157)
    %int-1_11 = torch.constant.int -1 loc(#loc158)
    %66 = torch.aten.transpose.int %3, %int-2_10, %int-1_11 : !torch.vtensor<[128,256],f16>, !torch.int, !torch.int -> !torch.vtensor<[256,128],f16> loc(#loc159)
    %int5_12 = torch.constant.int 5 loc(#loc160)
    %67 = torch.prims.convert_element_type %66, %int5_12 : !torch.vtensor<[256,128],f16>, !torch.int -> !torch.vtensor<[256,128],f16> loc(#loc161)
    %int256_13 = torch.constant.int 256 loc(#loc162)
    %68 = torch.prim.ListConstruct %60, %int256_13 : (!torch.int, !torch.int) -> !torch.list<int> loc(#loc163)
    %69 = torch.aten.view %57, %68 : !torch.vtensor<[4,?,256],f16>, !torch.list<int> -> !torch.vtensor<[?,256],f16> loc(#loc164)
    torch.bind_symbolic_shape %69, [%41], affine_map<()[s0] -> (s0 * 64, 256)> : !torch.vtensor<[?,256],f16> loc(#loc165)
    %70 = torch.aten.matmul %69, %67 : !torch.vtensor<[?,256],f16>, !torch.vtensor<[256,128],f16> -> !torch.vtensor<[?,128],f16> loc(#loc166)
    torch.bind_symbolic_shape %70, [%41], affine_map<()[s0] -> (s0 * 64, 128)> : !torch.vtensor<[?,128],f16> loc(#loc167)
    %int4_14 = torch.constant.int 4 loc(#loc168)
    %int128 = torch.constant.int 128 loc(#loc169)
    %71 = torch.prim.ListConstruct %int4_14, %47, %int128 : (!torch.int, !torch.int, !torch.int) -> !torch.list<int> loc(#loc170)
    %72 = torch.aten.view %70, %71 : !torch.vtensor<[?,128],f16>, !torch.list<int> -> !torch.vtensor<[4,?,128],f16> loc(#loc171)
    torch.bind_symbolic_shape %72, [%41], affine_map<()[s0] -> (4, s0 * 16, 128)> : !torch.vtensor<[4,?,128],f16> loc(#loc172)
    %int-2_15 = torch.constant.int -2 loc(#loc173)
    %int-1_16 = torch.constant.int -1 loc(#loc174)
    %73 = torch.aten.transpose.int %4, %int-2_15, %int-1_16 : !torch.vtensor<[128,256],f16>, !torch.int, !torch.int -> !torch.vtensor<[256,128],f16> loc(#loc175)
    %int5_17 = torch.constant.int 5 loc(#loc176)
    %74 = torch.prims.convert_element_type %73, %int5_17 : !torch.vtensor<[256,128],f16>, !torch.int -> !torch.vtensor<[256,128],f16> loc(#loc177)
    %int256_18 = torch.constant.int 256 loc(#loc178)
    %75 = torch.prim.ListConstruct %60, %int256_18 : (!torch.int, !torch.int) -> !torch.list<int> loc(#loc179)
    %76 = torch.aten.view %57, %75 : !torch.vtensor<[4,?,256],f16>, !torch.list<int> -> !torch.vtensor<[?,256],f16> loc(#loc180)
    torch.bind_symbolic_shape %76, [%41], affine_map<()[s0] -> (s0 * 64, 256)> : !torch.vtensor<[?,256],f16> loc(#loc181)
    %77 = torch.aten.matmul %76, %74 : !torch.vtensor<[?,256],f16>, !torch.vtensor<[256,128],f16> -> !torch.vtensor<[?,128],f16> loc(#loc182)
    torch.bind_symbolic_shape %77, [%41], affine_map<()[s0] -> (s0 * 64, 128)> : !torch.vtensor<[?,128],f16> loc(#loc183)
    %int4_19 = torch.constant.int 4 loc(#loc184)
    %int128_20 = torch.constant.int 128 loc(#loc185)
    %78 = torch.prim.ListConstruct %int4_19, %47, %int128_20 : (!torch.int, !torch.int, !torch.int) -> !torch.list<int> loc(#loc186)
    %79 = torch.aten.view %77, %78 : !torch.vtensor<[?,128],f16>, !torch.list<int> -> !torch.vtensor<[4,?,128],f16> loc(#loc187)
    torch.bind_symbolic_shape %79, [%41], affine_map<()[s0] -> (4, s0 * 16, 128)> : !torch.vtensor<[4,?,128],f16> loc(#loc188)
    %int4_21 = torch.constant.int 4 loc(#loc189)
    %int8 = torch.constant.int 8 loc(#loc190)
    %int32 = torch.constant.int 32 loc(#loc191)
    %80 = torch.prim.ListConstruct %int4_21, %47, %int8, %int32 : (!torch.int, !torch.int, !torch.int, !torch.int) -> !torch.list<int> loc(#loc192)
    %81 = torch.aten.view %65, %80 : !torch.vtensor<[4,?,256],f16>, !torch.list<int> -> !torch.vtensor<[4,?,8,32],f16> loc(#loc193)
    torch.bind_symbolic_shape %81, [%41], affine_map<()[s0] -> (4, s0 * 16, 8, 32)> : !torch.vtensor<[4,?,8,32],f16> loc(#loc194)
    %int4_22 = torch.constant.int 4 loc(#loc195)
    %int4_23 = torch.constant.int 4 loc(#loc196)
    %int32_24 = torch.constant.int 32 loc(#loc197)
    %82 = torch.prim.ListConstruct %int4_22, %47, %int4_23, %int32_24 : (!torch.int, !torch.int, !torch.int, !torch.int) -> !torch.list<int> loc(#loc198)
    %83 = torch.aten.view %72, %82 : !torch.vtensor<[4,?,128],f16>, !torch.list<int> -> !torch.vtensor<[4,?,4,32],f16> loc(#loc199)
    torch.bind_symbolic_shape %83, [%41], affine_map<()[s0] -> (4, s0 * 16, 4, 32)> : !torch.vtensor<[4,?,4,32],f16> loc(#loc200)
    %int4_25 = torch.constant.int 4 loc(#loc201)
    %int4_26 = torch.constant.int 4 loc(#loc202)
    %int32_27 = torch.constant.int 32 loc(#loc203)
    %84 = torch.prim.ListConstruct %int4_25, %47, %int4_26, %int32_27 : (!torch.int, !torch.int, !torch.int, !torch.int) -> !torch.list<int> loc(#loc204)
    %85 = torch.aten.view %79, %84 : !torch.vtensor<[4,?,128],f16>, !torch.list<int> -> !torch.vtensor<[4,?,4,32],f16> loc(#loc205)
    torch.bind_symbolic_shape %85, [%41], affine_map<()[s0] -> (4, s0 * 16, 4, 32)> : !torch.vtensor<[4,?,4,32],f16> loc(#loc206)
    %int0_28 = torch.constant.int 0 loc(#loc207)
    %none_29 = torch.constant.none loc(#loc208)
    %none_30 = torch.constant.none loc(#loc209)
    %cpu = torch.constant.device "cpu" loc(#loc210)
    %false_31 = torch.constant.bool false loc(#loc211)
    %86 = torch.aten.arange.start %int0_28, %47, %none_29, %none_30, %cpu, %false_31 : !torch.int, !torch.int, !torch.none, !torch.none, !torch.Device, !torch.bool -> !torch.vtensor<[?],si64> loc(#loc212)
    torch.bind_symbolic_shape %86, [%41], affine_map<()[s0] -> (s0 * 16)> : !torch.vtensor<[?],si64> loc(#loc213)
    %int0_32 = torch.constant.int 0 loc(#loc214)
    %87 = torch.aten.unsqueeze %86, %int0_32 : !torch.vtensor<[?],si64>, !torch.int -> !torch.vtensor<[1,?],si64> loc(#loc215)
    torch.bind_symbolic_shape %87, [%41], affine_map<()[s0] -> (1, s0 * 16)> : !torch.vtensor<[1,?],si64> loc(#loc216)
    %int0_33 = torch.constant.int 0 loc(#loc217)
    %int32_34 = torch.constant.int 32 loc(#loc218)
    %int2_35 = torch.constant.int 2 loc(#loc219)
    %none_36 = torch.constant.none loc(#loc220)
    %none_37 = torch.constant.none loc(#loc221)
    %cpu_38 = torch.constant.device "cpu" loc(#loc222)
    %false_39 = torch.constant.bool false loc(#loc223)
    %88 = torch.aten.arange.start_step %int0_33, %int32_34, %int2_35, %none_36, %none_37, %cpu_38, %false_39 : !torch.int, !torch.int, !torch.int, !torch.none, !torch.none, !torch.Device, !torch.bool -> !torch.vtensor<[16],si64> loc(#loc224)
    %int6_40 = torch.constant.int 6 loc(#loc225)
    %89 = torch.prims.convert_element_type %88, %int6_40 : !torch.vtensor<[16],si64>, !torch.int -> !torch.vtensor<[16],f32> loc(#loc226)
    %int32_41 = torch.constant.int 32 loc(#loc227)
    %90 = torch.aten.div.Scalar %89, %int32_41 : !torch.vtensor<[16],f32>, !torch.int -> !torch.vtensor<[16],f32> loc(#loc228)
    %float5.000000e05 = torch.constant.float 5.000000e+05 loc(#loc229)
    %91 = torch.aten.pow.Scalar %float5.000000e05, %90 : !torch.float, !torch.vtensor<[16],f32> -> !torch.vtensor<[16],f32> loc(#loc230)
    %92 = torch.aten.reciprocal %91 : !torch.vtensor<[16],f32> -> !torch.vtensor<[16],f32> loc(#loc231)
    %float1.000000e00 = torch.constant.float 1.000000e+00 loc(#loc232)
    %93 = torch.aten.mul.Scalar %92, %float1.000000e00 : !torch.vtensor<[16],f32>, !torch.float -> !torch.vtensor<[16],f32> loc(#loc233)
    %none_42 = torch.constant.none loc(#loc234)
    %94 = torch.aten.clone %5, %none_42 : !torch.vtensor<[],f32>, !torch.none -> !torch.vtensor<[],f32> loc(#loc235)
    %int0_43 = torch.constant.int 0 loc(#loc236)
    %95 = torch.aten.unsqueeze %93, %int0_43 : !torch.vtensor<[16],f32>, !torch.int -> !torch.vtensor<[1,16],f32> loc(#loc237)
    %int1_44 = torch.constant.int 1 loc(#loc238)
    %int0_45 = torch.constant.int 0 loc(#loc239)
    %int9223372036854775807 = torch.constant.int 9223372036854775807 loc(#loc240)
    %int1_46 = torch.constant.int 1 loc(#loc241)
    %96 = torch.aten.slice.Tensor %95, %int1_44, %int0_45, %int9223372036854775807, %int1_46 : !torch.vtensor<[1,16],f32>, !torch.int, !torch.int, !torch.int, !torch.int -> !torch.vtensor<[1,16],f32> loc(#loc242)
    %int2_47 = torch.constant.int 2 loc(#loc243)
    %97 = torch.aten.unsqueeze %96, %int2_47 : !torch.vtensor<[1,16],f32>, !torch.int -> !torch.vtensor<[1,16,1],f32> loc(#loc244)
    %int6_48 = torch.constant.int 6 loc(#loc245)
    %98 = torch.prims.convert_element_type %97, %int6_48 : !torch.vtensor<[1,16,1],f32>, !torch.int -> !torch.vtensor<[1,16,1],f32> loc(#loc246)
    %int1_49 = torch.constant.int 1 loc(#loc247)
    %int-1_50 = torch.constant.int -1 loc(#loc248)
    %int1_51 = torch.constant.int 1 loc(#loc249)
    %99 = torch.prim.ListConstruct %int1_49, %int-1_50, %int1_51 : (!torch.int, !torch.int, !torch.int) -> !torch.list<int> loc(#loc250)
    %false_52 = torch.constant.bool false loc(#loc251)
    %100 = torch.aten.expand %98, %99, %false_52 : !torch.vtensor<[1,16,1],f32>, !torch.list<int>, !torch.bool -> !torch.vtensor<[1,16,1],f32> loc(#loc252)
    %int0_53 = torch.constant.int 0 loc(#loc253)
    %int0_54 = torch.constant.int 0 loc(#loc254)
    %int9223372036854775807_55 = torch.constant.int 9223372036854775807 loc(#loc255)
    %int1_56 = torch.constant.int 1 loc(#loc256)
    %101 = torch.aten.slice.Tensor %87, %int0_53, %int0_54, %int9223372036854775807_55, %int1_56 : !torch.vtensor<[1,?],si64>, !torch.int, !torch.int, !torch.int, !torch.int -> !torch.vtensor<[1,?],si64> loc(#loc257)
    torch.bind_symbolic_shape %101, [%41], affine_map<()[s0] -> (1, s0 * 16)> : !torch.vtensor<[1,?],si64> loc(#loc258)
    %int1_57 = torch.constant.int 1 loc(#loc259)
    %102 = torch.aten.unsqueeze %101, %int1_57 : !torch.vtensor<[1,?],si64>, !torch.int -> !torch.vtensor<[1,1,?],si64> loc(#loc260)
    torch.bind_symbolic_shape %102, [%41], affine_map<()[s0] -> (1, 1, s0 * 16)> : !torch.vtensor<[1,1,?],si64> loc(#loc261)
    %int2_58 = torch.constant.int 2 loc(#loc262)
    %int0_59 = torch.constant.int 0 loc(#loc263)
    %int9223372036854775807_60 = torch.constant.int 9223372036854775807 loc(#loc264)
    %int1_61 = torch.constant.int 1 loc(#loc265)
    %103 = torch.aten.slice.Tensor %102, %int2_58, %int0_59, %int9223372036854775807_60, %int1_61 : !torch.vtensor<[1,1,?],si64>, !torch.int, !torch.int, !torch.int, !torch.int -> !torch.vtensor<[1,1,?],si64> loc(#loc266)
    torch.bind_symbolic_shape %103, [%41], affine_map<()[s0] -> (1, 1, s0 * 16)> : !torch.vtensor<[1,1,?],si64> loc(#loc267)
    %int6_62 = torch.constant.int 6 loc(#loc268)
    %104 = torch.prims.convert_element_type %103, %int6_62 : !torch.vtensor<[1,1,?],si64>, !torch.int -> !torch.vtensor<[1,1,?],f32> loc(#loc269)
    torch.bind_symbolic_shape %104, [%41], affine_map<()[s0] -> (1, 1, s0 * 16)> : !torch.vtensor<[1,1,?],f32> loc(#loc270)
    %105 = torch.aten.matmul %100, %104 : !torch.vtensor<[1,16,1],f32>, !torch.vtensor<[1,1,?],f32> -> !torch.vtensor<[1,16,?],f32> loc(#loc271)
    torch.bind_symbolic_shape %105, [%41], affine_map<()[s0] -> (1, 16, s0 * 16)> : !torch.vtensor<[1,16,?],f32> loc(#loc272)
    %int1_63 = torch.constant.int 1 loc(#loc273)
    %int2_64 = torch.constant.int 2 loc(#loc274)
    %106 = torch.aten.transpose.int %105, %int1_63, %int2_64 : !torch.vtensor<[1,16,?],f32>, !torch.int, !torch.int -> !torch.vtensor<[1,?,16],f32> loc(#loc275)
    torch.bind_symbolic_shape %106, [%41], affine_map<()[s0] -> (1, s0 * 16, 16)> : !torch.vtensor<[1,?,16],f32> loc(#loc276)
    %107 = torch.aten.cos %106 : !torch.vtensor<[1,?,16],f32> -> !torch.vtensor<[1,?,16],f32> loc(#loc277)
    torch.bind_symbolic_shape %107, [%41], affine_map<()[s0] -> (1, s0 * 16, 16)> : !torch.vtensor<[1,?,16],f32> loc(#loc278)
    %108 = torch.aten.mul.Tensor %107, %94 : !torch.vtensor<[1,?,16],f32>, !torch.vtensor<[],f32> -> !torch.vtensor<[1,?,16],f32> loc(#loc279)
    torch.bind_symbolic_shape %108, [%41], affine_map<()[s0] -> (1, s0 * 16, 16)> : !torch.vtensor<[1,?,16],f32> loc(#loc280)
    %int5_65 = torch.constant.int 5 loc(#loc281)
    %109 = torch.prims.convert_element_type %108, %int5_65 : !torch.vtensor<[1,?,16],f32>, !torch.int -> !torch.vtensor<[1,?,16],f16> loc(#loc282)
    torch.bind_symbolic_shape %109, [%41], affine_map<()[s0] -> (1, s0 * 16, 16)> : !torch.vtensor<[1,?,16],f16> loc(#loc283)
    %110 = torch.aten.sin %106 : !torch.vtensor<[1,?,16],f32> -> !torch.vtensor<[1,?,16],f32> loc(#loc284)
    torch.bind_symbolic_shape %110, [%41], affine_map<()[s0] -> (1, s0 * 16, 16)> : !torch.vtensor<[1,?,16],f32> loc(#loc285)
    %111 = torch.aten.mul.Tensor %110, %94 : !torch.vtensor<[1,?,16],f32>, !torch.vtensor<[],f32> -> !torch.vtensor<[1,?,16],f32> loc(#loc286)
    torch.bind_symbolic_shape %111, [%41], affine_map<()[s0] -> (1, s0 * 16, 16)> : !torch.vtensor<[1,?,16],f32> loc(#loc287)
    %int5_66 = torch.constant.int 5 loc(#loc288)
    %112 = torch.prims.convert_element_type %111, %int5_66 : !torch.vtensor<[1,?,16],f32>, !torch.int -> !torch.vtensor<[1,?,16],f16> loc(#loc289)
    torch.bind_symbolic_shape %112, [%41], affine_map<()[s0] -> (1, s0 * 16, 16)> : !torch.vtensor<[1,?,16],f16> loc(#loc290)
    %int2_67 = torch.constant.int 2 loc(#loc291)
    %113 = torch.aten.unsqueeze %109, %int2_67 : !torch.vtensor<[1,?,16],f16>, !torch.int -> !torch.vtensor<[1,?,1,16],f16> loc(#loc292)
    torch.bind_symbolic_shape %113, [%41], affine_map<()[s0] -> (1, s0 * 16, 1, 16)> : !torch.vtensor<[1,?,1,16],f16> loc(#loc293)
    %int2_68 = torch.constant.int 2 loc(#loc294)
    %114 = torch.aten.unsqueeze %112, %int2_68 : !torch.vtensor<[1,?,16],f16>, !torch.int -> !torch.vtensor<[1,?,1,16],f16> loc(#loc295)
    torch.bind_symbolic_shape %114, [%41], affine_map<()[s0] -> (1, s0 * 16, 1, 16)> : !torch.vtensor<[1,?,1,16],f16> loc(#loc296)
    %int5_69 = torch.constant.int 5 loc(#loc297)
    %115 = torch.prims.convert_element_type %81, %int5_69 : !torch.vtensor<[4,?,8,32],f16>, !torch.int -> !torch.vtensor<[4,?,8,32],f16> loc(#loc298)
    torch.bind_symbolic_shape %115, [%41], affine_map<()[s0] -> (4, s0 * 16, 8, 32)> : !torch.vtensor<[4,?,8,32],f16> loc(#loc299)
    %int3 = torch.constant.int 3 loc(#loc300)
    %int0_70 = torch.constant.int 0 loc(#loc301)
    %int32_71 = torch.constant.int 32 loc(#loc302)
    %int2_72 = torch.constant.int 2 loc(#loc303)
    %116 = torch.aten.slice.Tensor %115, %int3, %int0_70, %int32_71, %int2_72 : !torch.vtensor<[4,?,8,32],f16>, !torch.int, !torch.int, !torch.int, !torch.int -> !torch.vtensor<[4,?,8,16],f16> loc(#loc304)
    torch.bind_symbolic_shape %116, [%41], affine_map<()[s0] -> (4, s0 * 16, 8, 16)> : !torch.vtensor<[4,?,8,16],f16> loc(#loc305)
    %int3_73 = torch.constant.int 3 loc(#loc306)
    %int1_74 = torch.constant.int 1 loc(#loc307)
    %int32_75 = torch.constant.int 32 loc(#loc308)
    %int2_76 = torch.constant.int 2 loc(#loc309)
    %117 = torch.aten.slice.Tensor %115, %int3_73, %int1_74, %int32_75, %int2_76 : !torch.vtensor<[4,?,8,32],f16>, !torch.int, !torch.int, !torch.int, !torch.int -> !torch.vtensor<[4,?,8,16],f16> loc(#loc310)
    torch.bind_symbolic_shape %117, [%41], affine_map<()[s0] -> (4, s0 * 16, 8, 16)> : !torch.vtensor<[4,?,8,16],f16> loc(#loc311)
    %118 = torch.aten.mul.Tensor %116, %113 : !torch.vtensor<[4,?,8,16],f16>, !torch.vtensor<[1,?,1,16],f16> -> !torch.vtensor<[4,?,8,16],f16> loc(#loc312)
    torch.bind_symbolic_shape %118, [%41], affine_map<()[s0] -> (4, s0 * 16, 8, 16)> : !torch.vtensor<[4,?,8,16],f16> loc(#loc313)
    %119 = torch.aten.mul.Tensor %117, %114 : !torch.vtensor<[4,?,8,16],f16>, !torch.vtensor<[1,?,1,16],f16> -> !torch.vtensor<[4,?,8,16],f16> loc(#loc314)
    torch.bind_symbolic_shape %119, [%41], affine_map<()[s0] -> (4, s0 * 16, 8, 16)> : !torch.vtensor<[4,?,8,16],f16> loc(#loc315)
    %int1_77 = torch.constant.int 1 loc(#loc316)
    %120 = torch.aten.sub.Tensor %118, %119, %int1_77 : !torch.vtensor<[4,?,8,16],f16>, !torch.vtensor<[4,?,8,16],f16>, !torch.int -> !torch.vtensor<[4,?,8,16],f16> loc(#loc317)
    torch.bind_symbolic_shape %120, [%41], affine_map<()[s0] -> (4, s0 * 16, 8, 16)> : !torch.vtensor<[4,?,8,16],f16> loc(#loc318)
    %121 = torch.aten.mul.Tensor %117, %113 : !torch.vtensor<[4,?,8,16],f16>, !torch.vtensor<[1,?,1,16],f16> -> !torch.vtensor<[4,?,8,16],f16> loc(#loc319)
    torch.bind_symbolic_shape %121, [%41], affine_map<()[s0] -> (4, s0 * 16, 8, 16)> : !torch.vtensor<[4,?,8,16],f16> loc(#loc320)
    %122 = torch.aten.mul.Tensor %116, %114 : !torch.vtensor<[4,?,8,16],f16>, !torch.vtensor<[1,?,1,16],f16> -> !torch.vtensor<[4,?,8,16],f16> loc(#loc321)
    torch.bind_symbolic_shape %122, [%41], affine_map<()[s0] -> (4, s0 * 16, 8, 16)> : !torch.vtensor<[4,?,8,16],f16> loc(#loc322)
    %int1_78 = torch.constant.int 1 loc(#loc323)
    %123 = torch.aten.add.Tensor %121, %122, %int1_78 : !torch.vtensor<[4,?,8,16],f16>, !torch.vtensor<[4,?,8,16],f16>, !torch.int -> !torch.vtensor<[4,?,8,16],f16> loc(#loc324)
    torch.bind_symbolic_shape %123, [%41], affine_map<()[s0] -> (4, s0 * 16, 8, 16)> : !torch.vtensor<[4,?,8,16],f16> loc(#loc325)
    %124 = torch_c.to_builtin_tensor %120 : !torch.vtensor<[4,?,8,16],f16> -> tensor<4x?x8x16xf16> loc(#loc326)
    %cast = tensor.cast %124 : tensor<4x?x8x16xf16> to tensor<?x?x?x?xf16> loc(#loc327)
    %125 = torch_c.to_builtin_tensor %123 : !torch.vtensor<[4,?,8,16],f16> -> tensor<4x?x8x16xf16> loc(#loc328)
    %cast_79 = tensor.cast %125 : tensor<4x?x8x16xf16> to tensor<?x?x?x?xf16> loc(#loc329)
    %126 = util.call @rope_select_concat_BS_SL_HEADS_HALFDIM_f16_BS_SL_HEADS_HALFDIM_f16_BS_SL_HEADS_TWO_2_HALFDIM_f16(%cast, %cast_79) : (tensor<?x?x?x?xf16>, tensor<?x?x?x?xf16>) -> tensor<?x?x?x2x?xf16> loc(#loc330)
    %cast_80 = tensor.cast %126 : tensor<?x?x?x2x?xf16> to tensor<4x?x8x2x16xf16> loc(#loc331)
    %127 = torch_c.from_builtin_tensor %cast_80 : tensor<4x?x8x2x16xf16> -> !torch.vtensor<[4,?,8,2,16],f16> loc(#loc332)
    torch.bind_symbolic_shape %127, [%41], affine_map<()[s0] -> (4, s0 * 16, 8, 2, 16)> : !torch.vtensor<[4,?,8,2,16],f16> loc(#loc333)
    %int4_81 = torch.constant.int 4 loc(#loc334)
    %int8_82 = torch.constant.int 8 loc(#loc335)
    %int32_83 = torch.constant.int 32 loc(#loc336)
    %128 = torch.prim.ListConstruct %int4_81, %47, %int8_82, %int32_83 : (!torch.int, !torch.int, !torch.int, !torch.int) -> !torch.list<int> loc(#loc337)
    %129 = torch.aten.view %127, %128 : !torch.vtensor<[4,?,8,2,16],f16>, !torch.list<int> -> !torch.vtensor<[4,?,8,32],f16> loc(#loc338)
    torch.bind_symbolic_shape %129, [%41], affine_map<()[s0] -> (4, s0 * 16, 8, 32)> : !torch.vtensor<[4,?,8,32],f16> loc(#loc339)
    %int5_84 = torch.constant.int 5 loc(#loc340)
    %130 = torch.prims.convert_element_type %129, %int5_84 : !torch.vtensor<[4,?,8,32],f16>, !torch.int -> !torch.vtensor<[4,?,8,32],f16> loc(#loc341)
    torch.bind_symbolic_shape %130, [%41], affine_map<()[s0] -> (4, s0 * 16, 8, 32)> : !torch.vtensor<[4,?,8,32],f16> loc(#loc342)
    %int0_85 = torch.constant.int 0 loc(#loc343)
    %none_86 = torch.constant.none loc(#loc344)
    %none_87 = torch.constant.none loc(#loc345)
    %cpu_88 = torch.constant.device "cpu" loc(#loc346)
    %false_89 = torch.constant.bool false loc(#loc347)
    %131 = torch.aten.arange.start %int0_85, %47, %none_86, %none_87, %cpu_88, %false_89 : !torch.int, !torch.int, !torch.none, !torch.none, !torch.Device, !torch.bool -> !torch.vtensor<[?],si64> loc(#loc348)
    torch.bind_symbolic_shape %131, [%41], affine_map<()[s0] -> (s0 * 16)> : !torch.vtensor<[?],si64> loc(#loc349)
    %int0_90 = torch.constant.int 0 loc(#loc350)
    %132 = torch.aten.unsqueeze %131, %int0_90 : !torch.vtensor<[?],si64>, !torch.int -> !torch.vtensor<[1,?],si64> loc(#loc351)
    torch.bind_symbolic_shape %132, [%41], affine_map<()[s0] -> (1, s0 * 16)> : !torch.vtensor<[1,?],si64> loc(#loc352)
    %int0_91 = torch.constant.int 0 loc(#loc353)
    %int32_92 = torch.constant.int 32 loc(#loc354)
    %int2_93 = torch.constant.int 2 loc(#loc355)
    %none_94 = torch.constant.none loc(#loc356)
    %none_95 = torch.constant.none loc(#loc357)
    %cpu_96 = torch.constant.device "cpu" loc(#loc358)
    %false_97 = torch.constant.bool false loc(#loc359)
    %133 = torch.aten.arange.start_step %int0_91, %int32_92, %int2_93, %none_94, %none_95, %cpu_96, %false_97 : !torch.int, !torch.int, !torch.int, !torch.none, !torch.none, !torch.Device, !torch.bool -> !torch.vtensor<[16],si64> loc(#loc360)
    %int6_98 = torch.constant.int 6 loc(#loc361)
    %134 = torch.prims.convert_element_type %133, %int6_98 : !torch.vtensor<[16],si64>, !torch.int -> !torch.vtensor<[16],f32> loc(#loc362)
    %int32_99 = torch.constant.int 32 loc(#loc363)
    %135 = torch.aten.div.Scalar %134, %int32_99 : !torch.vtensor<[16],f32>, !torch.int -> !torch.vtensor<[16],f32> loc(#loc364)
    %float5.000000e05_100 = torch.constant.float 5.000000e+05 loc(#loc365)
    %136 = torch.aten.pow.Scalar %float5.000000e05_100, %135 : !torch.float, !torch.vtensor<[16],f32> -> !torch.vtensor<[16],f32> loc(#loc366)
    %137 = torch.aten.reciprocal %136 : !torch.vtensor<[16],f32> -> !torch.vtensor<[16],f32> loc(#loc367)
    %float1.000000e00_101 = torch.constant.float 1.000000e+00 loc(#loc368)
    %138 = torch.aten.mul.Scalar %137, %float1.000000e00_101 : !torch.vtensor<[16],f32>, !torch.float -> !torch.vtensor<[16],f32> loc(#loc369)
    %none_102 = torch.constant.none loc(#loc370)
    %139 = torch.aten.clone %6, %none_102 : !torch.vtensor<[],f32>, !torch.none -> !torch.vtensor<[],f32> loc(#loc371)
    %int0_103 = torch.constant.int 0 loc(#loc372)
    %140 = torch.aten.unsqueeze %138, %int0_103 : !torch.vtensor<[16],f32>, !torch.int -> !torch.vtensor<[1,16],f32> loc(#loc373)
    %int1_104 = torch.constant.int 1 loc(#loc374)
    %int0_105 = torch.constant.int 0 loc(#loc375)
    %int9223372036854775807_106 = torch.constant.int 9223372036854775807 loc(#loc376)
    %int1_107 = torch.constant.int 1 loc(#loc377)
    %141 = torch.aten.slice.Tensor %140, %int1_104, %int0_105, %int9223372036854775807_106, %int1_107 : !torch.vtensor<[1,16],f32>, !torch.int, !torch.int, !torch.int, !torch.int -> !torch.vtensor<[1,16],f32> loc(#loc378)
    %int2_108 = torch.constant.int 2 loc(#loc379)
    %142 = torch.aten.unsqueeze %141, %int2_108 : !torch.vtensor<[1,16],f32>, !torch.int -> !torch.vtensor<[1,16,1],f32> loc(#loc380)
    %int6_109 = torch.constant.int 6 loc(#loc381)
    %143 = torch.prims.convert_element_type %142, %int6_109 : !torch.vtensor<[1,16,1],f32>, !torch.int -> !torch.vtensor<[1,16,1],f32> loc(#loc382)
    %int1_110 = torch.constant.int 1 loc(#loc383)
    %int-1_111 = torch.constant.int -1 loc(#loc384)
    %int1_112 = torch.constant.int 1 loc(#loc385)
    %144 = torch.prim.ListConstruct %int1_110, %int-1_111, %int1_112 : (!torch.int, !torch.int, !torch.int) -> !torch.list<int> loc(#loc386)
    %false_113 = torch.constant.bool false loc(#loc387)
    %145 = torch.aten.expand %143, %144, %false_113 : !torch.vtensor<[1,16,1],f32>, !torch.list<int>, !torch.bool -> !torch.vtensor<[1,16,1],f32> loc(#loc388)
    %int0_114 = torch.constant.int 0 loc(#loc389)
    %int0_115 = torch.constant.int 0 loc(#loc390)
    %int9223372036854775807_116 = torch.constant.int 9223372036854775807 loc(#loc391)
    %int1_117 = torch.constant.int 1 loc(#loc392)
    %146 = torch.aten.slice.Tensor %132, %int0_114, %int0_115, %int9223372036854775807_116, %int1_117 : !torch.vtensor<[1,?],si64>, !torch.int, !torch.int, !torch.int, !torch.int -> !torch.vtensor<[1,?],si64> loc(#loc393)
    torch.bind_symbolic_shape %146, [%41], affine_map<()[s0] -> (1, s0 * 16)> : !torch.vtensor<[1,?],si64> loc(#loc394)
    %int1_118 = torch.constant.int 1 loc(#loc395)
    %147 = torch.aten.unsqueeze %146, %int1_118 : !torch.vtensor<[1,?],si64>, !torch.int -> !torch.vtensor<[1,1,?],si64> loc(#loc396)
    torch.bind_symbolic_shape %147, [%41], affine_map<()[s0] -> (1, 1, s0 * 16)> : !torch.vtensor<[1,1,?],si64> loc(#loc397)
    %int2_119 = torch.constant.int 2 loc(#loc398)
    %int0_120 = torch.constant.int 0 loc(#loc399)
    %int9223372036854775807_121 = torch.constant.int 9223372036854775807 loc(#loc400)
    %int1_122 = torch.constant.int 1 loc(#loc401)
    %148 = torch.aten.slice.Tensor %147, %int2_119, %int0_120, %int9223372036854775807_121, %int1_122 : !torch.vtensor<[1,1,?],si64>, !torch.int, !torch.int, !torch.int, !torch.int -> !torch.vtensor<[1,1,?],si64> loc(#loc402)
    torch.bind_symbolic_shape %148, [%41], affine_map<()[s0] -> (1, 1, s0 * 16)> : !torch.vtensor<[1,1,?],si64> loc(#loc403)
    %int6_123 = torch.constant.int 6 loc(#loc404)
    %149 = torch.prims.convert_element_type %148, %int6_123 : !torch.vtensor<[1,1,?],si64>, !torch.int -> !torch.vtensor<[1,1,?],f32> loc(#loc405)
    torch.bind_symbolic_shape %149, [%41], affine_map<()[s0] -> (1, 1, s0 * 16)> : !torch.vtensor<[1,1,?],f32> loc(#loc406)
    %150 = torch.aten.matmul %145, %149 : !torch.vtensor<[1,16,1],f32>, !torch.vtensor<[1,1,?],f32> -> !torch.vtensor<[1,16,?],f32> loc(#loc407)
    torch.bind_symbolic_shape %150, [%41], affine_map<()[s0] -> (1, 16, s0 * 16)> : !torch.vtensor<[1,16,?],f32> loc(#loc408)
    %int1_124 = torch.constant.int 1 loc(#loc409)
    %int2_125 = torch.constant.int 2 loc(#loc410)
    %151 = torch.aten.transpose.int %150, %int1_124, %int2_125 : !torch.vtensor<[1,16,?],f32>, !torch.int, !torch.int -> !torch.vtensor<[1,?,16],f32> loc(#loc411)
    torch.bind_symbolic_shape %151, [%41], affine_map<()[s0] -> (1, s0 * 16, 16)> : !torch.vtensor<[1,?,16],f32> loc(#loc412)
    %152 = torch.aten.cos %151 : !torch.vtensor<[1,?,16],f32> -> !torch.vtensor<[1,?,16],f32> loc(#loc413)
    torch.bind_symbolic_shape %152, [%41], affine_map<()[s0] -> (1, s0 * 16, 16)> : !torch.vtensor<[1,?,16],f32> loc(#loc414)
    %153 = torch.aten.mul.Tensor %152, %139 : !torch.vtensor<[1,?,16],f32>, !torch.vtensor<[],f32> -> !torch.vtensor<[1,?,16],f32> loc(#loc415)
    torch.bind_symbolic_shape %153, [%41], affine_map<()[s0] -> (1, s0 * 16, 16)> : !torch.vtensor<[1,?,16],f32> loc(#loc416)
    %int5_126 = torch.constant.int 5 loc(#loc417)
    %154 = torch.prims.convert_element_type %153, %int5_126 : !torch.vtensor<[1,?,16],f32>, !torch.int -> !torch.vtensor<[1,?,16],f16> loc(#loc418)
    torch.bind_symbolic_shape %154, [%41], affine_map<()[s0] -> (1, s0 * 16, 16)> : !torch.vtensor<[1,?,16],f16> loc(#loc419)
    %155 = torch.aten.sin %151 : !torch.vtensor<[1,?,16],f32> -> !torch.vtensor<[1,?,16],f32> loc(#loc420)
    torch.bind_symbolic_shape %155, [%41], affine_map<()[s0] -> (1, s0 * 16, 16)> : !torch.vtensor<[1,?,16],f32> loc(#loc421)
    %156 = torch.aten.mul.Tensor %155, %139 : !torch.vtensor<[1,?,16],f32>, !torch.vtensor<[],f32> -> !torch.vtensor<[1,?,16],f32> loc(#loc422)
    torch.bind_symbolic_shape %156, [%41], affine_map<()[s0] -> (1, s0 * 16, 16)> : !torch.vtensor<[1,?,16],f32> loc(#loc423)
    %int5_127 = torch.constant.int 5 loc(#loc424)
    %157 = torch.prims.convert_element_type %156, %int5_127 : !torch.vtensor<[1,?,16],f32>, !torch.int -> !torch.vtensor<[1,?,16],f16> loc(#loc425)
    torch.bind_symbolic_shape %157, [%41], affine_map<()[s0] -> (1, s0 * 16, 16)> : !torch.vtensor<[1,?,16],f16> loc(#loc426)
    %int2_128 = torch.constant.int 2 loc(#loc427)
    %158 = torch.aten.unsqueeze %154, %int2_128 : !torch.vtensor<[1,?,16],f16>, !torch.int -> !torch.vtensor<[1,?,1,16],f16> loc(#loc428)
    torch.bind_symbolic_shape %158, [%41], affine_map<()[s0] -> (1, s0 * 16, 1, 16)> : !torch.vtensor<[1,?,1,16],f16> loc(#loc429)
    %int2_129 = torch.constant.int 2 loc(#loc430)
    %159 = torch.aten.unsqueeze %157, %int2_129 : !torch.vtensor<[1,?,16],f16>, !torch.int -> !torch.vtensor<[1,?,1,16],f16> loc(#loc431)
    torch.bind_symbolic_shape %159, [%41], affine_map<()[s0] -> (1, s0 * 16, 1, 16)> : !torch.vtensor<[1,?,1,16],f16> loc(#loc432)
    %int5_130 = torch.constant.int 5 loc(#loc433)
    %160 = torch.prims.convert_element_type %83, %int5_130 : !torch.vtensor<[4,?,4,32],f16>, !torch.int -> !torch.vtensor<[4,?,4,32],f16> loc(#loc434)
    torch.bind_symbolic_shape %160, [%41], affine_map<()[s0] -> (4, s0 * 16, 4, 32)> : !torch.vtensor<[4,?,4,32],f16> loc(#loc435)
    %int3_131 = torch.constant.int 3 loc(#loc436)
    %int0_132 = torch.constant.int 0 loc(#loc437)
    %int32_133 = torch.constant.int 32 loc(#loc438)
    %int2_134 = torch.constant.int 2 loc(#loc439)
    %161 = torch.aten.slice.Tensor %160, %int3_131, %int0_132, %int32_133, %int2_134 : !torch.vtensor<[4,?,4,32],f16>, !torch.int, !torch.int, !torch.int, !torch.int -> !torch.vtensor<[4,?,4,16],f16> loc(#loc440)
    torch.bind_symbolic_shape %161, [%41], affine_map<()[s0] -> (4, s0 * 16, 4, 16)> : !torch.vtensor<[4,?,4,16],f16> loc(#loc441)
    %int3_135 = torch.constant.int 3 loc(#loc442)
    %int1_136 = torch.constant.int 1 loc(#loc443)
    %int32_137 = torch.constant.int 32 loc(#loc444)
    %int2_138 = torch.constant.int 2 loc(#loc445)
    %162 = torch.aten.slice.Tensor %160, %int3_135, %int1_136, %int32_137, %int2_138 : !torch.vtensor<[4,?,4,32],f16>, !torch.int, !torch.int, !torch.int, !torch.int -> !torch.vtensor<[4,?,4,16],f16> loc(#loc446)
    torch.bind_symbolic_shape %162, [%41], affine_map<()[s0] -> (4, s0 * 16, 4, 16)> : !torch.vtensor<[4,?,4,16],f16> loc(#loc447)
    %163 = torch.aten.mul.Tensor %161, %158 : !torch.vtensor<[4,?,4,16],f16>, !torch.vtensor<[1,?,1,16],f16> -> !torch.vtensor<[4,?,4,16],f16> loc(#loc448)
    torch.bind_symbolic_shape %163, [%41], affine_map<()[s0] -> (4, s0 * 16, 4, 16)> : !torch.vtensor<[4,?,4,16],f16> loc(#loc449)
    %164 = torch.aten.mul.Tensor %162, %159 : !torch.vtensor<[4,?,4,16],f16>, !torch.vtensor<[1,?,1,16],f16> -> !torch.vtensor<[4,?,4,16],f16> loc(#loc450)
    torch.bind_symbolic_shape %164, [%41], affine_map<()[s0] -> (4, s0 * 16, 4, 16)> : !torch.vtensor<[4,?,4,16],f16> loc(#loc451)
    %int1_139 = torch.constant.int 1 loc(#loc452)
    %165 = torch.aten.sub.Tensor %163, %164, %int1_139 : !torch.vtensor<[4,?,4,16],f16>, !torch.vtensor<[4,?,4,16],f16>, !torch.int -> !torch.vtensor<[4,?,4,16],f16> loc(#loc453)
    torch.bind_symbolic_shape %165, [%41], affine_map<()[s0] -> (4, s0 * 16, 4, 16)> : !torch.vtensor<[4,?,4,16],f16> loc(#loc454)
    %166 = torch.aten.mul.Tensor %162, %158 : !torch.vtensor<[4,?,4,16],f16>, !torch.vtensor<[1,?,1,16],f16> -> !torch.vtensor<[4,?,4,16],f16> loc(#loc455)
    torch.bind_symbolic_shape %166, [%41], affine_map<()[s0] -> (4, s0 * 16, 4, 16)> : !torch.vtensor<[4,?,4,16],f16> loc(#loc456)
    %167 = torch.aten.mul.Tensor %161, %159 : !torch.vtensor<[4,?,4,16],f16>, !torch.vtensor<[1,?,1,16],f16> -> !torch.vtensor<[4,?,4,16],f16> loc(#loc457)
    torch.bind_symbolic_shape %167, [%41], affine_map<()[s0] -> (4, s0 * 16, 4, 16)> : !torch.vtensor<[4,?,4,16],f16> loc(#loc458)
    %int1_140 = torch.constant.int 1 loc(#loc459)
    %168 = torch.aten.add.Tensor %166, %167, %int1_140 : !torch.vtensor<[4,?,4,16],f16>, !torch.vtensor<[4,?,4,16],f16>, !torch.int -> !torch.vtensor<[4,?,4,16],f16> loc(#loc460)
    torch.bind_symbolic_shape %168, [%41], affine_map<()[s0] -> (4, s0 * 16, 4, 16)> : !torch.vtensor<[4,?,4,16],f16> loc(#loc461)
    %169 = torch_c.to_builtin_tensor %165 : !torch.vtensor<[4,?,4,16],f16> -> tensor<4x?x4x16xf16> loc(#loc462)
    %cast_141 = tensor.cast %169 : tensor<4x?x4x16xf16> to tensor<?x?x?x?xf16> loc(#loc463)
    %170 = torch_c.to_builtin_tensor %168 : !torch.vtensor<[4,?,4,16],f16> -> tensor<4x?x4x16xf16> loc(#loc464)
    %cast_142 = tensor.cast %170 : tensor<4x?x4x16xf16> to tensor<?x?x?x?xf16> loc(#loc465)
    %171 = util.call @rope_select_concat_BS_SL_HEADS_HALFDIM_f16_BS_SL_HEADS_HALFDIM_f16_BS_SL_HEADS_TWO_2_HALFDIM_f16(%cast_141, %cast_142) : (tensor<?x?x?x?xf16>, tensor<?x?x?x?xf16>) -> tensor<?x?x?x2x?xf16> loc(#loc466)
    %cast_143 = tensor.cast %171 : tensor<?x?x?x2x?xf16> to tensor<4x?x4x2x16xf16> loc(#loc467)
    %172 = torch_c.from_builtin_tensor %cast_143 : tensor<4x?x4x2x16xf16> -> !torch.vtensor<[4,?,4,2,16],f16> loc(#loc468)
    torch.bind_symbolic_shape %172, [%41], affine_map<()[s0] -> (4, s0 * 16, 4, 2, 16)> : !torch.vtensor<[4,?,4,2,16],f16> loc(#loc469)
    %int4_144 = torch.constant.int 4 loc(#loc470)
    %int4_145 = torch.constant.int 4 loc(#loc471)
    %int32_146 = torch.constant.int 32 loc(#loc472)
    %173 = torch.prim.ListConstruct %int4_144, %47, %int4_145, %int32_146 : (!torch.int, !torch.int, !torch.int, !torch.int) -> !torch.list<int> loc(#loc473)
    %174 = torch.aten.view %172, %173 : !torch.vtensor<[4,?,4,2,16],f16>, !torch.list<int> -> !torch.vtensor<[4,?,4,32],f16> loc(#loc474)
    torch.bind_symbolic_shape %174, [%41], affine_map<()[s0] -> (4, s0 * 16, 4, 32)> : !torch.vtensor<[4,?,4,32],f16> loc(#loc475)
    %int5_147 = torch.constant.int 5 loc(#loc476)
    %175 = torch.prims.convert_element_type %174, %int5_147 : !torch.vtensor<[4,?,4,32],f16>, !torch.int -> !torch.vtensor<[4,?,4,32],f16> loc(#loc477)
    torch.bind_symbolic_shape %175, [%41], affine_map<()[s0] -> (4, s0 * 16, 4, 32)> : !torch.vtensor<[4,?,4,32],f16> loc(#loc478)
    %int3_148 = torch.constant.int 3 loc(#loc479)
    %int2_149 = torch.constant.int 2 loc(#loc480)
    %int4_150 = torch.constant.int 4 loc(#loc481)
    %int16 = torch.constant.int 16 loc(#loc482)
    %int32_151 = torch.constant.int 32 loc(#loc483)
    %176 = torch.prim.ListConstruct %44, %int3_148, %int2_149, %int4_150, %int16, %int32_151 : (!torch.int, !torch.int, !torch.int, !torch.int, !torch.int, !torch.int) -> !torch.list<int> loc(#loc484)
    %177 = torch.aten.view %39, %176 : !torch.vtensor<[?,12288],f16>, !torch.list<int> -> !torch.vtensor<[?,3,2,4,16,32],f16> loc(#loc485)
    torch.bind_symbolic_shape %177, [%42], affine_map<()[s0] -> (s0, 3, 2, 4, 16, 32)> : !torch.vtensor<[?,3,2,4,16,32],f16> loc(#loc486)
    %int3_152 = torch.constant.int 3 loc(#loc487)
    %178 = torch.aten.mul.int %44, %int3_152 : !torch.int, !torch.int -> !torch.int loc(#loc488)
    %int2_153 = torch.constant.int 2 loc(#loc489)
    %179 = torch.aten.mul.int %178, %int2_153 : !torch.int, !torch.int -> !torch.int loc(#loc490)
    %int4_154 = torch.constant.int 4 loc(#loc491)
    %int16_155 = torch.constant.int 16 loc(#loc492)
    %int32_156 = torch.constant.int 32 loc(#loc493)
    %180 = torch.prim.ListConstruct %179, %int4_154, %int16_155, %int32_156 : (!torch.int, !torch.int, !torch.int, !torch.int) -> !torch.list<int> loc(#loc494)
    %181 = torch.aten.view %177, %180 : !torch.vtensor<[?,3,2,4,16,32],f16>, !torch.list<int> -> !torch.vtensor<[?,4,16,32],f16> loc(#loc495)
    torch.bind_symbolic_shape %181, [%42], affine_map<()[s0] -> (s0 * 6, 4, 16, 32)> : !torch.vtensor<[?,4,16,32],f16> loc(#loc496)
    %int3_157 = torch.constant.int 3 loc(#loc497)
    %182 = torch.aten.mul.Scalar %arg2, %int3_157 : !torch.vtensor<[4,?],si64>, !torch.int -> !torch.vtensor<[4,?],si64> loc(#loc498)
    torch.bind_symbolic_shape %182, [%41], affine_map<()[s0] -> (4, s0)> : !torch.vtensor<[4,?],si64> loc(#loc499)
    %int0_158 = torch.constant.int 0 loc(#loc500)
    %int1_159 = torch.constant.int 1 loc(#loc501)
    %183 = torch.aten.add.Scalar %182, %int0_158, %int1_159 : !torch.vtensor<[4,?],si64>, !torch.int, !torch.int -> !torch.vtensor<[4,?],si64> loc(#loc502)
    torch.bind_symbolic_shape %183, [%41], affine_map<()[s0] -> (4, s0)> : !torch.vtensor<[4,?],si64> loc(#loc503)
    %int2_160 = torch.constant.int 2 loc(#loc504)
    %184 = torch.aten.mul.Scalar %183, %int2_160 : !torch.vtensor<[4,?],si64>, !torch.int -> !torch.vtensor<[4,?],si64> loc(#loc505)
    torch.bind_symbolic_shape %184, [%41], affine_map<()[s0] -> (4, s0)> : !torch.vtensor<[4,?],si64> loc(#loc506)
    %int0_161 = torch.constant.int 0 loc(#loc507)
    %int1_162 = torch.constant.int 1 loc(#loc508)
    %185 = torch.aten.add.Scalar %184, %int0_161, %int1_162 : !torch.vtensor<[4,?],si64>, !torch.int, !torch.int -> !torch.vtensor<[4,?],si64> loc(#loc509)
    torch.bind_symbolic_shape %185, [%41], affine_map<()[s0] -> (4, s0)> : !torch.vtensor<[4,?],si64> loc(#loc510)
    %int4_163 = torch.constant.int 4 loc(#loc511)
    %186 = torch.aten.mul.int %int4_163, %43 : !torch.int, !torch.int -> !torch.int loc(#loc512)
    %187 = torch.prim.ListConstruct %186 : (!torch.int) -> !torch.list<int> loc(#loc513)
    %188 = torch.aten.view %185, %187 : !torch.vtensor<[4,?],si64>, !torch.list<int> -> !torch.vtensor<[?],si64> loc(#loc514)
    torch.bind_symbolic_shape %188, [%41], affine_map<()[s0] -> (s0 * 4)> : !torch.vtensor<[?],si64> loc(#loc515)
    %int4_164 = torch.constant.int 4 loc(#loc516)
    %int16_165 = torch.constant.int 16 loc(#loc517)
    %int4_166 = torch.constant.int 4 loc(#loc518)
    %int32_167 = torch.constant.int 32 loc(#loc519)
    %189 = torch.prim.ListConstruct %int4_164, %43, %int16_165, %int4_166, %int32_167 : (!torch.int, !torch.int, !torch.int, !torch.int, !torch.int) -> !torch.list<int> loc(#loc520)
    %190 = torch.aten.view %175, %189 : !torch.vtensor<[4,?,4,32],f16>, !torch.list<int> -> !torch.vtensor<[4,?,16,4,32],f16> loc(#loc521)
    torch.bind_symbolic_shape %190, [%41], affine_map<()[s0] -> (4, s0, 16, 4, 32)> : !torch.vtensor<[4,?,16,4,32],f16> loc(#loc522)
    %int16_168 = torch.constant.int 16 loc(#loc523)
    %int4_169 = torch.constant.int 4 loc(#loc524)
    %int32_170 = torch.constant.int 32 loc(#loc525)
    %191 = torch.prim.ListConstruct %186, %int16_168, %int4_169, %int32_170 : (!torch.int, !torch.int, !torch.int, !torch.int) -> !torch.list<int> loc(#loc526)
    %192 = torch.aten.view %190, %191 : !torch.vtensor<[4,?,16,4,32],f16>, !torch.list<int> -> !torch.vtensor<[?,16,4,32],f16> loc(#loc527)
    torch.bind_symbolic_shape %192, [%41], affine_map<()[s0] -> (s0 * 4, 16, 4, 32)> : !torch.vtensor<[?,16,4,32],f16> loc(#loc528)
    %int1_171 = torch.constant.int 1 loc(#loc529)
    %int2_172 = torch.constant.int 2 loc(#loc530)
    %193 = torch.aten.transpose.int %192, %int1_171, %int2_172 : !torch.vtensor<[?,16,4,32],f16>, !torch.int, !torch.int -> !torch.vtensor<[?,4,16,32],f16> loc(#loc531)
    torch.bind_symbolic_shape %193, [%41], affine_map<()[s0] -> (s0 * 4, 4, 16, 32)> : !torch.vtensor<[?,4,16,32],f16> loc(#loc532)
    %int5_173 = torch.constant.int 5 loc(#loc533)
    %194 = torch.prims.convert_element_type %193, %int5_173 : !torch.vtensor<[?,4,16,32],f16>, !torch.int -> !torch.vtensor<[?,4,16,32],f16> loc(#loc534)
    torch.bind_symbolic_shape %194, [%41], affine_map<()[s0] -> (s0 * 4, 4, 16, 32)> : !torch.vtensor<[?,4,16,32],f16> loc(#loc535)
    %195 = torch.prim.ListConstruct %188 : (!torch.vtensor<[?],si64>) -> !torch.list<optional<vtensor>> loc(#loc536)
    %false_174 = torch.constant.bool false loc(#loc537)
    %196 = torch.aten.index_put %181, %195, %194, %false_174 : !torch.vtensor<[?,4,16,32],f16>, !torch.list<optional<vtensor>>, !torch.vtensor<[?,4,16,32],f16>, !torch.bool -> !torch.vtensor<[?,4,16,32],f16> loc(#loc538)
    torch.bind_symbolic_shape %196, [%42], affine_map<()[s0] -> (s0 * 6, 4, 16, 32)> : !torch.vtensor<[?,4,16,32],f16> loc(#loc539)
    %int3_175 = torch.constant.int 3 loc(#loc540)
    %int2_176 = torch.constant.int 2 loc(#loc541)
    %int4_177 = torch.constant.int 4 loc(#loc542)
    %int16_178 = torch.constant.int 16 loc(#loc543)
    %int32_179 = torch.constant.int 32 loc(#loc544)
    %197 = torch.prim.ListConstruct %44, %int3_175, %int2_176, %int4_177, %int16_178, %int32_179 : (!torch.int, !torch.int, !torch.int, !torch.int, !torch.int, !torch.int) -> !torch.list<int> loc(#loc545)
    %198 = torch.aten.view %196, %197 : !torch.vtensor<[?,4,16,32],f16>, !torch.list<int> -> !torch.vtensor<[?,3,2,4,16,32],f16> loc(#loc546)
    torch.bind_symbolic_shape %198, [%42], affine_map<()[s0] -> (s0, 3, 2, 4, 16, 32)> : !torch.vtensor<[?,3,2,4,16,32],f16> loc(#loc547)
    %int12288 = torch.constant.int 12288 loc(#loc548)
    %199 = torch.prim.ListConstruct %44, %int12288 : (!torch.int, !torch.int) -> !torch.list<int> loc(#loc549)
    %200 = torch.aten.view %198, %199 : !torch.vtensor<[?,3,2,4,16,32],f16>, !torch.list<int> -> !torch.vtensor<[?,12288],f16> loc(#loc550)
    torch.bind_symbolic_shape %200, [%42], affine_map<()[s0] -> (s0, 12288)> : !torch.vtensor<[?,12288],f16> loc(#loc551)
    %int3_180 = torch.constant.int 3 loc(#loc552)
    %int2_181 = torch.constant.int 2 loc(#loc553)
    %int4_182 = torch.constant.int 4 loc(#loc554)
    %int16_183 = torch.constant.int 16 loc(#loc555)
    %int32_184 = torch.constant.int 32 loc(#loc556)
    %201 = torch.prim.ListConstruct %44, %int3_180, %int2_181, %int4_182, %int16_183, %int32_184 : (!torch.int, !torch.int, !torch.int, !torch.int, !torch.int, !torch.int) -> !torch.list<int> loc(#loc557)
    %202 = torch.aten.view %200, %201 : !torch.vtensor<[?,12288],f16>, !torch.list<int> -> !torch.vtensor<[?,3,2,4,16,32],f16> loc(#loc558)
    torch.bind_symbolic_shape %202, [%42], affine_map<()[s0] -> (s0, 3, 2, 4, 16, 32)> : !torch.vtensor<[?,3,2,4,16,32],f16> loc(#loc559)
    %int4_185 = torch.constant.int 4 loc(#loc560)
    %int16_186 = torch.constant.int 16 loc(#loc561)
    %int32_187 = torch.constant.int 32 loc(#loc562)
    %203 = torch.prim.ListConstruct %179, %int4_185, %int16_186, %int32_187 : (!torch.int, !torch.int, !torch.int, !torch.int) -> !torch.list<int> loc(#loc563)
    %204 = torch.aten.view %202, %203 : !torch.vtensor<[?,3,2,4,16,32],f16>, !torch.list<int> -> !torch.vtensor<[?,4,16,32],f16> loc(#loc564)
    torch.bind_symbolic_shape %204, [%42], affine_map<()[s0] -> (s0 * 6, 4, 16, 32)> : !torch.vtensor<[?,4,16,32],f16> loc(#loc565)
    %int3_188 = torch.constant.int 3 loc(#loc566)
    %205 = torch.aten.mul.Scalar %arg2, %int3_188 : !torch.vtensor<[4,?],si64>, !torch.int -> !torch.vtensor<[4,?],si64> loc(#loc567)
    torch.bind_symbolic_shape %205, [%41], affine_map<()[s0] -> (4, s0)> : !torch.vtensor<[4,?],si64> loc(#loc568)
    %int0_189 = torch.constant.int 0 loc(#loc569)
    %int1_190 = torch.constant.int 1 loc(#loc570)
    %206 = torch.aten.add.Scalar %205, %int0_189, %int1_190 : !torch.vtensor<[4,?],si64>, !torch.int, !torch.int -> !torch.vtensor<[4,?],si64> loc(#loc571)
    torch.bind_symbolic_shape %206, [%41], affine_map<()[s0] -> (4, s0)> : !torch.vtensor<[4,?],si64> loc(#loc572)
    %int2_191 = torch.constant.int 2 loc(#loc573)
    %207 = torch.aten.mul.Scalar %206, %int2_191 : !torch.vtensor<[4,?],si64>, !torch.int -> !torch.vtensor<[4,?],si64> loc(#loc574)
    torch.bind_symbolic_shape %207, [%41], affine_map<()[s0] -> (4, s0)> : !torch.vtensor<[4,?],si64> loc(#loc575)
    %int1_192 = torch.constant.int 1 loc(#loc576)
    %int1_193 = torch.constant.int 1 loc(#loc577)
    %208 = torch.aten.add.Scalar %207, %int1_192, %int1_193 : !torch.vtensor<[4,?],si64>, !torch.int, !torch.int -> !torch.vtensor<[4,?],si64> loc(#loc578)
    torch.bind_symbolic_shape %208, [%41], affine_map<()[s0] -> (4, s0)> : !torch.vtensor<[4,?],si64> loc(#loc579)
    %209 = torch.prim.ListConstruct %186 : (!torch.int) -> !torch.list<int> loc(#loc580)
    %210 = torch.aten.view %208, %209 : !torch.vtensor<[4,?],si64>, !torch.list<int> -> !torch.vtensor<[?],si64> loc(#loc581)
    torch.bind_symbolic_shape %210, [%41], affine_map<()[s0] -> (s0 * 4)> : !torch.vtensor<[?],si64> loc(#loc582)
    %int4_194 = torch.constant.int 4 loc(#loc583)
    %int16_195 = torch.constant.int 16 loc(#loc584)
    %int4_196 = torch.constant.int 4 loc(#loc585)
    %int32_197 = torch.constant.int 32 loc(#loc586)
    %211 = torch.prim.ListConstruct %int4_194, %43, %int16_195, %int4_196, %int32_197 : (!torch.int, !torch.int, !torch.int, !torch.int, !torch.int) -> !torch.list<int> loc(#loc587)
    %212 = torch.aten.view %85, %211 : !torch.vtensor<[4,?,4,32],f16>, !torch.list<int> -> !torch.vtensor<[4,?,16,4,32],f16> loc(#loc588)
    torch.bind_symbolic_shape %212, [%41], affine_map<()[s0] -> (4, s0, 16, 4, 32)> : !torch.vtensor<[4,?,16,4,32],f16> loc(#loc589)
    %int16_198 = torch.constant.int 16 loc(#loc590)
    %int4_199 = torch.constant.int 4 loc(#loc591)
    %int32_200 = torch.constant.int 32 loc(#loc592)
    %213 = torch.prim.ListConstruct %186, %int16_198, %int4_199, %int32_200 : (!torch.int, !torch.int, !torch.int, !torch.int) -> !torch.list<int> loc(#loc593)
    %214 = torch.aten.view %212, %213 : !torch.vtensor<[4,?,16,4,32],f16>, !torch.list<int> -> !torch.vtensor<[?,16,4,32],f16> loc(#loc594)
    torch.bind_symbolic_shape %214, [%41], affine_map<()[s0] -> (s0 * 4, 16, 4, 32)> : !torch.vtensor<[?,16,4,32],f16> loc(#loc595)
    %int1_201 = torch.constant.int 1 loc(#loc596)
    %int2_202 = torch.constant.int 2 loc(#loc597)
    %215 = torch.aten.transpose.int %214, %int1_201, %int2_202 : !torch.vtensor<[?,16,4,32],f16>, !torch.int, !torch.int -> !torch.vtensor<[?,4,16,32],f16> loc(#loc598)
    torch.bind_symbolic_shape %215, [%41], affine_map<()[s0] -> (s0 * 4, 4, 16, 32)> : !torch.vtensor<[?,4,16,32],f16> loc(#loc599)
    %int5_203 = torch.constant.int 5 loc(#loc600)
    %216 = torch.prims.convert_element_type %215, %int5_203 : !torch.vtensor<[?,4,16,32],f16>, !torch.int -> !torch.vtensor<[?,4,16,32],f16> loc(#loc601)
    torch.bind_symbolic_shape %216, [%41], affine_map<()[s0] -> (s0 * 4, 4, 16, 32)> : !torch.vtensor<[?,4,16,32],f16> loc(#loc602)
    %217 = torch.prim.ListConstruct %210 : (!torch.vtensor<[?],si64>) -> !torch.list<optional<vtensor>> loc(#loc603)
    %false_204 = torch.constant.bool false loc(#loc604)
    %218 = torch.aten.index_put %204, %217, %216, %false_204 : !torch.vtensor<[?,4,16,32],f16>, !torch.list<optional<vtensor>>, !torch.vtensor<[?,4,16,32],f16>, !torch.bool -> !torch.vtensor<[?,4,16,32],f16> loc(#loc605)
    torch.bind_symbolic_shape %218, [%42], affine_map<()[s0] -> (s0 * 6, 4, 16, 32)> : !torch.vtensor<[?,4,16,32],f16> loc(#loc606)
    %int3_205 = torch.constant.int 3 loc(#loc607)
    %int2_206 = torch.constant.int 2 loc(#loc608)
    %int4_207 = torch.constant.int 4 loc(#loc609)
    %int16_208 = torch.constant.int 16 loc(#loc610)
    %int32_209 = torch.constant.int 32 loc(#loc611)
    %219 = torch.prim.ListConstruct %44, %int3_205, %int2_206, %int4_207, %int16_208, %int32_209 : (!torch.int, !torch.int, !torch.int, !torch.int, !torch.int, !torch.int) -> !torch.list<int> loc(#loc612)
    %220 = torch.aten.view %218, %219 : !torch.vtensor<[?,4,16,32],f16>, !torch.list<int> -> !torch.vtensor<[?,3,2,4,16,32],f16> loc(#loc613)
    torch.bind_symbolic_shape %220, [%42], affine_map<()[s0] -> (s0, 3, 2, 4, 16, 32)> : !torch.vtensor<[?,3,2,4,16,32],f16> loc(#loc614)
    %int12288_210 = torch.constant.int 12288 loc(#loc615)
    %221 = torch.prim.ListConstruct %44, %int12288_210 : (!torch.int, !torch.int) -> !torch.list<int> loc(#loc616)
    %222 = torch.aten.view %220, %221 : !torch.vtensor<[?,3,2,4,16,32],f16>, !torch.list<int> -> !torch.vtensor<[?,12288],f16> loc(#loc617)
    torch.bind_symbolic_shape %222, [%42], affine_map<()[s0] -> (s0, 12288)> : !torch.vtensor<[?,12288],f16> loc(#loc618)
    %int0_211 = torch.constant.int 0 loc(#loc619)
    %int1_212 = torch.constant.int 1 loc(#loc620)
    %none_213 = torch.constant.none loc(#loc621)
    %none_214 = torch.constant.none loc(#loc622)
    %cpu_215 = torch.constant.device "cpu" loc(#loc623)
    %false_216 = torch.constant.bool false loc(#loc624)
    %223 = torch.aten.arange.start_step %int0_211, %47, %int1_212, %none_213, %none_214, %cpu_215, %false_216 : !torch.int, !torch.int, !torch.int, !torch.none, !torch.none, !torch.Device, !torch.bool -> !torch.vtensor<[?],si64> loc(#loc625)
    torch.bind_symbolic_shape %223, [%41], affine_map<()[s0] -> (s0 * 16)> : !torch.vtensor<[?],si64> loc(#loc626)
    %int-1_217 = torch.constant.int -1 loc(#loc627)
    %224 = torch.aten.unsqueeze %arg1, %int-1_217 : !torch.vtensor<[4],si64>, !torch.int -> !torch.vtensor<[4,1],si64> loc(#loc628)
    %225 = torch.aten.ge.Tensor %223, %224 : !torch.vtensor<[?],si64>, !torch.vtensor<[4,1],si64> -> !torch.vtensor<[4,?],i1> loc(#loc629)
    torch.bind_symbolic_shape %225, [%41], affine_map<()[s0] -> (4, s0 * 16)> : !torch.vtensor<[4,?],i1> loc(#loc630)
    %none_218 = torch.constant.none loc(#loc631)
    %none_219 = torch.constant.none loc(#loc632)
    %cpu_220 = torch.constant.device "cpu" loc(#loc633)
    %false_221 = torch.constant.bool false loc(#loc634)
    %226 = torch.aten.arange %47, %none_218, %none_219, %cpu_220, %false_221 : !torch.int, !torch.none, !torch.none, !torch.Device, !torch.bool -> !torch.vtensor<[?],si64> loc(#loc635)
    torch.bind_symbolic_shape %226, [%41], affine_map<()[s0] -> (s0 * 16)> : !torch.vtensor<[?],si64> loc(#loc636)
    %int0_222 = torch.constant.int 0 loc(#loc637)
    %227 = torch.aten.unsqueeze %226, %int0_222 : !torch.vtensor<[?],si64>, !torch.int -> !torch.vtensor<[1,?],si64> loc(#loc638)
    torch.bind_symbolic_shape %227, [%41], affine_map<()[s0] -> (1, s0 * 16)> : !torch.vtensor<[1,?],si64> loc(#loc639)
    %int1_223 = torch.constant.int 1 loc(#loc640)
    %228 = torch.aten.unsqueeze %227, %int1_223 : !torch.vtensor<[1,?],si64>, !torch.int -> !torch.vtensor<[1,1,?],si64> loc(#loc641)
    torch.bind_symbolic_shape %228, [%41], affine_map<()[s0] -> (1, 1, s0 * 16)> : !torch.vtensor<[1,1,?],si64> loc(#loc642)
    %int2_224 = torch.constant.int 2 loc(#loc643)
    %229 = torch.aten.unsqueeze %228, %int2_224 : !torch.vtensor<[1,1,?],si64>, !torch.int -> !torch.vtensor<[1,1,1,?],si64> loc(#loc644)
    torch.bind_symbolic_shape %229, [%41], affine_map<()[s0] -> (1, 1, 1, s0 * 16)> : !torch.vtensor<[1,1,1,?],si64> loc(#loc645)
    %int3_225 = torch.constant.int 3 loc(#loc646)
    %int0_226 = torch.constant.int 0 loc(#loc647)
    %int9223372036854775807_227 = torch.constant.int 9223372036854775807 loc(#loc648)
    %int1_228 = torch.constant.int 1 loc(#loc649)
    %230 = torch.aten.slice.Tensor %229, %int3_225, %int0_226, %int9223372036854775807_227, %int1_228 : !torch.vtensor<[1,1,1,?],si64>, !torch.int, !torch.int, !torch.int, !torch.int -> !torch.vtensor<[1,1,1,?],si64> loc(#loc650)
    torch.bind_symbolic_shape %230, [%41], affine_map<()[s0] -> (1, 1, 1, s0 * 16)> : !torch.vtensor<[1,1,1,?],si64> loc(#loc651)
    %none_229 = torch.constant.none loc(#loc652)
    %none_230 = torch.constant.none loc(#loc653)
    %cpu_231 = torch.constant.device "cpu" loc(#loc654)
    %false_232 = torch.constant.bool false loc(#loc655)
    %231 = torch.aten.arange %47, %none_229, %none_230, %cpu_231, %false_232 : !torch.int, !torch.none, !torch.none, !torch.Device, !torch.bool -> !torch.vtensor<[?],si64> loc(#loc656)
    torch.bind_symbolic_shape %231, [%41], affine_map<()[s0] -> (s0 * 16)> : !torch.vtensor<[?],si64> loc(#loc657)
    %int0_233 = torch.constant.int 0 loc(#loc658)
    %232 = torch.aten.unsqueeze %231, %int0_233 : !torch.vtensor<[?],si64>, !torch.int -> !torch.vtensor<[1,?],si64> loc(#loc659)
    torch.bind_symbolic_shape %232, [%41], affine_map<()[s0] -> (1, s0 * 16)> : !torch.vtensor<[1,?],si64> loc(#loc660)
    %int1_234 = torch.constant.int 1 loc(#loc661)
    %233 = torch.aten.unsqueeze %232, %int1_234 : !torch.vtensor<[1,?],si64>, !torch.int -> !torch.vtensor<[1,1,?],si64> loc(#loc662)
    torch.bind_symbolic_shape %233, [%41], affine_map<()[s0] -> (1, 1, s0 * 16)> : !torch.vtensor<[1,1,?],si64> loc(#loc663)
    %int2_235 = torch.constant.int 2 loc(#loc664)
    %int0_236 = torch.constant.int 0 loc(#loc665)
    %int9223372036854775807_237 = torch.constant.int 9223372036854775807 loc(#loc666)
    %int1_238 = torch.constant.int 1 loc(#loc667)
    %234 = torch.aten.slice.Tensor %233, %int2_235, %int0_236, %int9223372036854775807_237, %int1_238 : !torch.vtensor<[1,1,?],si64>, !torch.int, !torch.int, !torch.int, !torch.int -> !torch.vtensor<[1,1,?],si64> loc(#loc668)
    torch.bind_symbolic_shape %234, [%41], affine_map<()[s0] -> (1, 1, s0 * 16)> : !torch.vtensor<[1,1,?],si64> loc(#loc669)
    %int3_239 = torch.constant.int 3 loc(#loc670)
    %235 = torch.aten.unsqueeze %234, %int3_239 : !torch.vtensor<[1,1,?],si64>, !torch.int -> !torch.vtensor<[1,1,?,1],si64> loc(#loc671)
    torch.bind_symbolic_shape %235, [%41], affine_map<()[s0] -> (1, 1, s0 * 16, 1)> : !torch.vtensor<[1,1,?,1],si64> loc(#loc672)
    %236 = torch.aten.gt.Tensor %230, %235 : !torch.vtensor<[1,1,1,?],si64>, !torch.vtensor<[1,1,?,1],si64> -> !torch.vtensor<[1,1,?,?],i1> loc(#loc673)
    torch.bind_symbolic_shape %236, [%41], affine_map<()[s0] -> (1, 1, s0 * 16, s0 * 16)> : !torch.vtensor<[1,1,?,?],i1> loc(#loc674)
    %int0_240 = torch.constant.int 0 loc(#loc675)
    %int0_241 = torch.constant.int 0 loc(#loc676)
    %int9223372036854775807_242 = torch.constant.int 9223372036854775807 loc(#loc677)
    %int1_243 = torch.constant.int 1 loc(#loc678)
    %237 = torch.aten.slice.Tensor %225, %int0_240, %int0_241, %int9223372036854775807_242, %int1_243 : !torch.vtensor<[4,?],i1>, !torch.int, !torch.int, !torch.int, !torch.int -> !torch.vtensor<[4,?],i1> loc(#loc679)
    torch.bind_symbolic_shape %237, [%41], affine_map<()[s0] -> (4, s0 * 16)> : !torch.vtensor<[4,?],i1> loc(#loc680)
    %int1_244 = torch.constant.int 1 loc(#loc681)
    %238 = torch.aten.unsqueeze %237, %int1_244 : !torch.vtensor<[4,?],i1>, !torch.int -> !torch.vtensor<[4,1,?],i1> loc(#loc682)
    torch.bind_symbolic_shape %238, [%41], affine_map<()[s0] -> (4, 1, s0 * 16)> : !torch.vtensor<[4,1,?],i1> loc(#loc683)
    %int2_245 = torch.constant.int 2 loc(#loc684)
    %239 = torch.aten.unsqueeze %238, %int2_245 : !torch.vtensor<[4,1,?],i1>, !torch.int -> !torch.vtensor<[4,1,1,?],i1> loc(#loc685)
    torch.bind_symbolic_shape %239, [%41], affine_map<()[s0] -> (4, 1, 1, s0 * 16)> : !torch.vtensor<[4,1,1,?],i1> loc(#loc686)
    %int3_246 = torch.constant.int 3 loc(#loc687)
    %int0_247 = torch.constant.int 0 loc(#loc688)
    %int9223372036854775807_248 = torch.constant.int 9223372036854775807 loc(#loc689)
    %int1_249 = torch.constant.int 1 loc(#loc690)
    %240 = torch.aten.slice.Tensor %239, %int3_246, %int0_247, %int9223372036854775807_248, %int1_249 : !torch.vtensor<[4,1,1,?],i1>, !torch.int, !torch.int, !torch.int, !torch.int -> !torch.vtensor<[4,1,1,?],i1> loc(#loc691)
    torch.bind_symbolic_shape %240, [%41], affine_map<()[s0] -> (4, 1, 1, s0 * 16)> : !torch.vtensor<[4,1,1,?],i1> loc(#loc692)
    %241 = torch.aten.logical_or %236, %240 : !torch.vtensor<[1,1,?,?],i1>, !torch.vtensor<[4,1,1,?],i1> -> !torch.vtensor<[4,1,?,?],i1> loc(#loc693)
    torch.bind_symbolic_shape %241, [%41], affine_map<()[s0] -> (4, 1, s0 * 16, s0 * 16)> : !torch.vtensor<[4,1,?,?],i1> loc(#loc694)
    %none_250 = torch.constant.none loc(#loc695)
    %242 = torch.aten.clone %7, %none_250 : !torch.vtensor<[],f16>, !torch.none -> !torch.vtensor<[],f16> loc(#loc696)
    %int0_251 = torch.constant.int 0 loc(#loc697)
    %243 = torch.aten.where.ScalarOther %241, %242, %int0_251 : !torch.vtensor<[4,1,?,?],i1>, !torch.vtensor<[],f16>, !torch.int -> !torch.vtensor<[4,1,?,?],f16> loc(#loc698)
    torch.bind_symbolic_shape %243, [%41], affine_map<()[s0] -> (4, 1, s0 * 16, s0 * 16)> : !torch.vtensor<[4,1,?,?],f16> loc(#loc699)
    %int5_252 = torch.constant.int 5 loc(#loc700)
    %244 = torch.prims.convert_element_type %243, %int5_252 : !torch.vtensor<[4,1,?,?],f16>, !torch.int -> !torch.vtensor<[4,1,?,?],f16> loc(#loc701)
    torch.bind_symbolic_shape %244, [%41], affine_map<()[s0] -> (4, 1, s0 * 16, s0 * 16)> : !torch.vtensor<[4,1,?,?],f16> loc(#loc702)
    %int5_253 = torch.constant.int 5 loc(#loc703)
    %245 = torch.prims.convert_element_type %244, %int5_253 : !torch.vtensor<[4,1,?,?],f16>, !torch.int -> !torch.vtensor<[4,1,?,?],f16> loc(#loc704)
    torch.bind_symbolic_shape %245, [%41], affine_map<()[s0] -> (4, 1, s0 * 16, s0 * 16)> : !torch.vtensor<[4,1,?,?],f16> loc(#loc705)
    %int-2_254 = torch.constant.int -2 loc(#loc706)
    %246 = torch.aten.unsqueeze %175, %int-2_254 : !torch.vtensor<[4,?,4,32],f16>, !torch.int -> !torch.vtensor<[4,?,4,1,32],f16> loc(#loc707)
    torch.bind_symbolic_shape %246, [%41], affine_map<()[s0] -> (4, s0 * 16, 4, 1, 32)> : !torch.vtensor<[4,?,4,1,32],f16> loc(#loc708)
    %int4_255 = torch.constant.int 4 loc(#loc709)
    %int4_256 = torch.constant.int 4 loc(#loc710)
    %int2_257 = torch.constant.int 2 loc(#loc711)
    %int32_258 = torch.constant.int 32 loc(#loc712)
    %247 = torch.prim.ListConstruct %int4_255, %47, %int4_256, %int2_257, %int32_258 : (!torch.int, !torch.int, !torch.int, !torch.int, !torch.int) -> !torch.list<int> loc(#loc713)
    %false_259 = torch.constant.bool false loc(#loc714)
    %248 = torch.aten.expand %246, %247, %false_259 : !torch.vtensor<[4,?,4,1,32],f16>, !torch.list<int>, !torch.bool -> !torch.vtensor<[4,?,4,2,32],f16> loc(#loc715)
    torch.bind_symbolic_shape %248, [%41], affine_map<()[s0] -> (4, s0 * 16, 4, 2, 32)> : !torch.vtensor<[4,?,4,2,32],f16> loc(#loc716)
    %int0_260 = torch.constant.int 0 loc(#loc717)
    %249 = torch.aten.clone %248, %int0_260 : !torch.vtensor<[4,?,4,2,32],f16>, !torch.int -> !torch.vtensor<[4,?,4,2,32],f16> loc(#loc718)
    torch.bind_symbolic_shape %249, [%41], affine_map<()[s0] -> (4, s0 * 16, 4, 2, 32)> : !torch.vtensor<[4,?,4,2,32],f16> loc(#loc719)
    %int4_261 = torch.constant.int 4 loc(#loc720)
    %int8_262 = torch.constant.int 8 loc(#loc721)
    %int32_263 = torch.constant.int 32 loc(#loc722)
    %250 = torch.prim.ListConstruct %int4_261, %47, %int8_262, %int32_263 : (!torch.int, !torch.int, !torch.int, !torch.int) -> !torch.list<int> loc(#loc723)
    %251 = torch.aten._unsafe_view %249, %250 : !torch.vtensor<[4,?,4,2,32],f16>, !torch.list<int> -> !torch.vtensor<[4,?,8,32],f16> loc(#loc724)
    torch.bind_symbolic_shape %251, [%41], affine_map<()[s0] -> (4, s0 * 16, 8, 32)> : !torch.vtensor<[4,?,8,32],f16> loc(#loc725)
    %int-2_264 = torch.constant.int -2 loc(#loc726)
    %252 = torch.aten.unsqueeze %85, %int-2_264 : !torch.vtensor<[4,?,4,32],f16>, !torch.int -> !torch.vtensor<[4,?,4,1,32],f16> loc(#loc727)
    torch.bind_symbolic_shape %252, [%41], affine_map<()[s0] -> (4, s0 * 16, 4, 1, 32)> : !torch.vtensor<[4,?,4,1,32],f16> loc(#loc728)
    %int4_265 = torch.constant.int 4 loc(#loc729)
    %int4_266 = torch.constant.int 4 loc(#loc730)
    %int2_267 = torch.constant.int 2 loc(#loc731)
    %int32_268 = torch.constant.int 32 loc(#loc732)
    %253 = torch.prim.ListConstruct %int4_265, %47, %int4_266, %int2_267, %int32_268 : (!torch.int, !torch.int, !torch.int, !torch.int, !torch.int) -> !torch.list<int> loc(#loc733)
    %false_269 = torch.constant.bool false loc(#loc734)
    %254 = torch.aten.expand %252, %253, %false_269 : !torch.vtensor<[4,?,4,1,32],f16>, !torch.list<int>, !torch.bool -> !torch.vtensor<[4,?,4,2,32],f16> loc(#loc735)
    torch.bind_symbolic_shape %254, [%41], affine_map<()[s0] -> (4, s0 * 16, 4, 2, 32)> : !torch.vtensor<[4,?,4,2,32],f16> loc(#loc736)
    %int0_270 = torch.constant.int 0 loc(#loc737)
    %255 = torch.aten.clone %254, %int0_270 : !torch.vtensor<[4,?,4,2,32],f16>, !torch.int -> !torch.vtensor<[4,?,4,2,32],f16> loc(#loc738)
    torch.bind_symbolic_shape %255, [%41], affine_map<()[s0] -> (4, s0 * 16, 4, 2, 32)> : !torch.vtensor<[4,?,4,2,32],f16> loc(#loc739)
    %int4_271 = torch.constant.int 4 loc(#loc740)
    %int8_272 = torch.constant.int 8 loc(#loc741)
    %int32_273 = torch.constant.int 32 loc(#loc742)
    %256 = torch.prim.ListConstruct %int4_271, %47, %int8_272, %int32_273 : (!torch.int, !torch.int, !torch.int, !torch.int) -> !torch.list<int> loc(#loc743)
    %257 = torch.aten._unsafe_view %255, %256 : !torch.vtensor<[4,?,4,2,32],f16>, !torch.list<int> -> !torch.vtensor<[4,?,8,32],f16> loc(#loc744)
    torch.bind_symbolic_shape %257, [%41], affine_map<()[s0] -> (4, s0 * 16, 8, 32)> : !torch.vtensor<[4,?,8,32],f16> loc(#loc745)
    %int1_274 = torch.constant.int 1 loc(#loc746)
    %int2_275 = torch.constant.int 2 loc(#loc747)
    %258 = torch.aten.transpose.int %130, %int1_274, %int2_275 : !torch.vtensor<[4,?,8,32],f16>, !torch.int, !torch.int -> !torch.vtensor<[4,8,?,32],f16> loc(#loc748)
    torch.bind_symbolic_shape %258, [%41], affine_map<()[s0] -> (4, 8, s0 * 16, 32)> : !torch.vtensor<[4,8,?,32],f16> loc(#loc749)
    %int1_276 = torch.constant.int 1 loc(#loc750)
    %int2_277 = torch.constant.int 2 loc(#loc751)
    %259 = torch.aten.transpose.int %251, %int1_276, %int2_277 : !torch.vtensor<[4,?,8,32],f16>, !torch.int, !torch.int -> !torch.vtensor<[4,8,?,32],f16> loc(#loc752)
    torch.bind_symbolic_shape %259, [%41], affine_map<()[s0] -> (4, 8, s0 * 16, 32)> : !torch.vtensor<[4,8,?,32],f16> loc(#loc753)
    %int1_278 = torch.constant.int 1 loc(#loc754)
    %int2_279 = torch.constant.int 2 loc(#loc755)
    %260 = torch.aten.transpose.int %257, %int1_278, %int2_279 : !torch.vtensor<[4,?,8,32],f16>, !torch.int, !torch.int -> !torch.vtensor<[4,8,?,32],f16> loc(#loc756)
    torch.bind_symbolic_shape %260, [%41], affine_map<()[s0] -> (4, 8, s0 * 16, 32)> : !torch.vtensor<[4,8,?,32],f16> loc(#loc757)
    %float0.000000e00 = torch.constant.float 0.000000e+00 loc(#loc758)
    %false_280 = torch.constant.bool false loc(#loc759)
    %none_281 = torch.constant.none loc(#loc760)
    %false_282 = torch.constant.bool false loc(#loc761)
    %261 = torch.aten.scaled_dot_product_attention %258, %259, %260, %245, %float0.000000e00, %false_280, %none_281, %false_282 : !torch.vtensor<[4,8,?,32],f16>, !torch.vtensor<[4,8,?,32],f16>, !torch.vtensor<[4,8,?,32],f16>, !torch.vtensor<[4,1,?,?],f16>, !torch.float, !torch.bool, !torch.none, !torch.bool -> !torch.vtensor<[4,8,?,32],f16> loc(#loc762)
    torch.bind_symbolic_shape %261, [%41], affine_map<()[s0] -> (4, 8, s0 * 16, 32)> : !torch.vtensor<[4,8,?,32],f16> loc(#loc763)
    %int1_283 = torch.constant.int 1 loc(#loc764)
    %int2_284 = torch.constant.int 2 loc(#loc765)
    %262 = torch.aten.transpose.int %261, %int1_283, %int2_284 : !torch.vtensor<[4,8,?,32],f16>, !torch.int, !torch.int -> !torch.vtensor<[4,?,8,32],f16> loc(#loc766)
    torch.bind_symbolic_shape %262, [%41], affine_map<()[s0] -> (4, s0 * 16, 8, 32)> : !torch.vtensor<[4,?,8,32],f16> loc(#loc767)
    %int4_285 = torch.constant.int 4 loc(#loc768)
    %int256_286 = torch.constant.int 256 loc(#loc769)
    %263 = torch.prim.ListConstruct %int4_285, %47, %int256_286 : (!torch.int, !torch.int, !torch.int) -> !torch.list<int> loc(#loc770)
    %264 = torch.aten.view %262, %263 : !torch.vtensor<[4,?,8,32],f16>, !torch.list<int> -> !torch.vtensor<[4,?,256],f16> loc(#loc771)
    torch.bind_symbolic_shape %264, [%41], affine_map<()[s0] -> (4, s0 * 16, 256)> : !torch.vtensor<[4,?,256],f16> loc(#loc772)
    %int-2_287 = torch.constant.int -2 loc(#loc773)
    %int-1_288 = torch.constant.int -1 loc(#loc774)
    %265 = torch.aten.transpose.int %8, %int-2_287, %int-1_288 : !torch.vtensor<[256,256],f16>, !torch.int, !torch.int -> !torch.vtensor<[256,256],f16> loc(#loc775)
    %int5_289 = torch.constant.int 5 loc(#loc776)
    %266 = torch.prims.convert_element_type %265, %int5_289 : !torch.vtensor<[256,256],f16>, !torch.int -> !torch.vtensor<[256,256],f16> loc(#loc777)
    %int256_290 = torch.constant.int 256 loc(#loc778)
    %267 = torch.prim.ListConstruct %60, %int256_290 : (!torch.int, !torch.int) -> !torch.list<int> loc(#loc779)
    %268 = torch.aten.view %264, %267 : !torch.vtensor<[4,?,256],f16>, !torch.list<int> -> !torch.vtensor<[?,256],f16> loc(#loc780)
    torch.bind_symbolic_shape %268, [%41], affine_map<()[s0] -> (s0 * 64, 256)> : !torch.vtensor<[?,256],f16> loc(#loc781)
    %269 = torch.aten.matmul %268, %266 : !torch.vtensor<[?,256],f16>, !torch.vtensor<[256,256],f16> -> !torch.vtensor<[?,256],f16> loc(#loc782)
    torch.bind_symbolic_shape %269, [%41], affine_map<()[s0] -> (s0 * 64, 256)> : !torch.vtensor<[?,256],f16> loc(#loc783)
    %int4_291 = torch.constant.int 4 loc(#loc784)
    %int256_292 = torch.constant.int 256 loc(#loc785)
    %270 = torch.prim.ListConstruct %int4_291, %47, %int256_292 : (!torch.int, !torch.int, !torch.int) -> !torch.list<int> loc(#loc786)
    %271 = torch.aten.view %269, %270 : !torch.vtensor<[?,256],f16>, !torch.list<int> -> !torch.vtensor<[4,?,256],f16> loc(#loc787)
    torch.bind_symbolic_shape %271, [%41], affine_map<()[s0] -> (4, s0 * 16, 256)> : !torch.vtensor<[4,?,256],f16> loc(#loc788)
    %int5_293 = torch.constant.int 5 loc(#loc789)
    %272 = torch.prims.convert_element_type %271, %int5_293 : !torch.vtensor<[4,?,256],f16>, !torch.int -> !torch.vtensor<[4,?,256],f16> loc(#loc790)
    torch.bind_symbolic_shape %272, [%41], affine_map<()[s0] -> (4, s0 * 16, 256)> : !torch.vtensor<[4,?,256],f16> loc(#loc791)
    %int1_294 = torch.constant.int 1 loc(#loc792)
    %273 = torch.aten.add.Tensor %46, %272, %int1_294 : !torch.vtensor<[4,?,256],f16>, !torch.vtensor<[4,?,256],f16>, !torch.int -> !torch.vtensor<[4,?,256],f16> loc(#loc793)
    torch.bind_symbolic_shape %273, [%41], affine_map<()[s0] -> (4, s0 * 16, 256)> : !torch.vtensor<[4,?,256],f16> loc(#loc794)
    %int6_295 = torch.constant.int 6 loc(#loc795)
    %274 = torch.prims.convert_element_type %273, %int6_295 : !torch.vtensor<[4,?,256],f16>, !torch.int -> !torch.vtensor<[4,?,256],f32> loc(#loc796)
    torch.bind_symbolic_shape %274, [%41], affine_map<()[s0] -> (4, s0 * 16, 256)> : !torch.vtensor<[4,?,256],f32> loc(#loc797)
    %int2_296 = torch.constant.int 2 loc(#loc798)
    %275 = torch.aten.pow.Tensor_Scalar %274, %int2_296 : !torch.vtensor<[4,?,256],f32>, !torch.int -> !torch.vtensor<[4,?,256],f32> loc(#loc799)
    torch.bind_symbolic_shape %275, [%41], affine_map<()[s0] -> (4, s0 * 16, 256)> : !torch.vtensor<[4,?,256],f32> loc(#loc800)
    %int-1_297 = torch.constant.int -1 loc(#loc801)
    %276 = torch.prim.ListConstruct %int-1_297 : (!torch.int) -> !torch.list<int> loc(#loc802)
    %true_298 = torch.constant.bool true loc(#loc803)
    %none_299 = torch.constant.none loc(#loc804)
    %277 = torch.aten.mean.dim %275, %276, %true_298, %none_299 : !torch.vtensor<[4,?,256],f32>, !torch.list<int>, !torch.bool, !torch.none -> !torch.vtensor<[4,?,1],f32> loc(#loc805)
    torch.bind_symbolic_shape %277, [%41], affine_map<()[s0] -> (4, s0 * 16, 1)> : !torch.vtensor<[4,?,1],f32> loc(#loc806)
    %float1.000000e-02_300 = torch.constant.float 1.000000e-02 loc(#loc807)
    %int1_301 = torch.constant.int 1 loc(#loc808)
    %278 = torch.aten.add.Scalar %277, %float1.000000e-02_300, %int1_301 : !torch.vtensor<[4,?,1],f32>, !torch.float, !torch.int -> !torch.vtensor<[4,?,1],f32> loc(#loc809)
    torch.bind_symbolic_shape %278, [%41], affine_map<()[s0] -> (4, s0 * 16, 1)> : !torch.vtensor<[4,?,1],f32> loc(#loc810)
    %279 = torch.aten.rsqrt %278 : !torch.vtensor<[4,?,1],f32> -> !torch.vtensor<[4,?,1],f32> loc(#loc811)
    torch.bind_symbolic_shape %279, [%41], affine_map<()[s0] -> (4, s0 * 16, 1)> : !torch.vtensor<[4,?,1],f32> loc(#loc812)
    %280 = torch.aten.mul.Tensor %274, %279 : !torch.vtensor<[4,?,256],f32>, !torch.vtensor<[4,?,1],f32> -> !torch.vtensor<[4,?,256],f32> loc(#loc813)
    torch.bind_symbolic_shape %280, [%41], affine_map<()[s0] -> (4, s0 * 16, 256)> : !torch.vtensor<[4,?,256],f32> loc(#loc814)
    %int5_302 = torch.constant.int 5 loc(#loc815)
    %281 = torch.prims.convert_element_type %280, %int5_302 : !torch.vtensor<[4,?,256],f32>, !torch.int -> !torch.vtensor<[4,?,256],f16> loc(#loc816)
    torch.bind_symbolic_shape %281, [%41], affine_map<()[s0] -> (4, s0 * 16, 256)> : !torch.vtensor<[4,?,256],f16> loc(#loc817)
    %282 = torch.aten.mul.Tensor %9, %281 : !torch.vtensor<[256],f32>, !torch.vtensor<[4,?,256],f16> -> !torch.vtensor<[4,?,256],f32> loc(#loc818)
    torch.bind_symbolic_shape %282, [%41], affine_map<()[s0] -> (4, s0 * 16, 256)> : !torch.vtensor<[4,?,256],f32> loc(#loc819)
    %int5_303 = torch.constant.int 5 loc(#loc820)
    %283 = torch.prims.convert_element_type %282, %int5_303 : !torch.vtensor<[4,?,256],f32>, !torch.int -> !torch.vtensor<[4,?,256],f16> loc(#loc821)
    torch.bind_symbolic_shape %283, [%41], affine_map<()[s0] -> (4, s0 * 16, 256)> : !torch.vtensor<[4,?,256],f16> loc(#loc822)
    %int-2_304 = torch.constant.int -2 loc(#loc823)
    %int-1_305 = torch.constant.int -1 loc(#loc824)
    %284 = torch.aten.transpose.int %10, %int-2_304, %int-1_305 : !torch.vtensor<[23,256],f16>, !torch.int, !torch.int -> !torch.vtensor<[256,23],f16> loc(#loc825)
    %int5_306 = torch.constant.int 5 loc(#loc826)
    %285 = torch.prims.convert_element_type %284, %int5_306 : !torch.vtensor<[256,23],f16>, !torch.int -> !torch.vtensor<[256,23],f16> loc(#loc827)
    %int256_307 = torch.constant.int 256 loc(#loc828)
    %286 = torch.prim.ListConstruct %60, %int256_307 : (!torch.int, !torch.int) -> !torch.list<int> loc(#loc829)
    %287 = torch.aten.view %283, %286 : !torch.vtensor<[4,?,256],f16>, !torch.list<int> -> !torch.vtensor<[?,256],f16> loc(#loc830)
    torch.bind_symbolic_shape %287, [%41], affine_map<()[s0] -> (s0 * 64, 256)> : !torch.vtensor<[?,256],f16> loc(#loc831)
    %288 = torch.aten.matmul %287, %285 : !torch.vtensor<[?,256],f16>, !torch.vtensor<[256,23],f16> -> !torch.vtensor<[?,23],f16> loc(#loc832)
    torch.bind_symbolic_shape %288, [%41], affine_map<()[s0] -> (s0 * 64, 23)> : !torch.vtensor<[?,23],f16> loc(#loc833)
    %int4_308 = torch.constant.int 4 loc(#loc834)
    %int23 = torch.constant.int 23 loc(#loc835)
    %289 = torch.prim.ListConstruct %int4_308, %47, %int23 : (!torch.int, !torch.int, !torch.int) -> !torch.list<int> loc(#loc836)
    %290 = torch.aten.view %288, %289 : !torch.vtensor<[?,23],f16>, !torch.list<int> -> !torch.vtensor<[4,?,23],f16> loc(#loc837)
    torch.bind_symbolic_shape %290, [%41], affine_map<()[s0] -> (4, s0 * 16, 23)> : !torch.vtensor<[4,?,23],f16> loc(#loc838)
    %291 = torch.aten.silu %290 : !torch.vtensor<[4,?,23],f16> -> !torch.vtensor<[4,?,23],f16> loc(#loc839)
    torch.bind_symbolic_shape %291, [%41], affine_map<()[s0] -> (4, s0 * 16, 23)> : !torch.vtensor<[4,?,23],f16> loc(#loc840)
    %int-2_309 = torch.constant.int -2 loc(#loc841)
    %int-1_310 = torch.constant.int -1 loc(#loc842)
    %292 = torch.aten.transpose.int %11, %int-2_309, %int-1_310 : !torch.vtensor<[23,256],f16>, !torch.int, !torch.int -> !torch.vtensor<[256,23],f16> loc(#loc843)
    %int5_311 = torch.constant.int 5 loc(#loc844)
    %293 = torch.prims.convert_element_type %292, %int5_311 : !torch.vtensor<[256,23],f16>, !torch.int -> !torch.vtensor<[256,23],f16> loc(#loc845)
    %int256_312 = torch.constant.int 256 loc(#loc846)
    %294 = torch.prim.ListConstruct %60, %int256_312 : (!torch.int, !torch.int) -> !torch.list<int> loc(#loc847)
    %295 = torch.aten.view %283, %294 : !torch.vtensor<[4,?,256],f16>, !torch.list<int> -> !torch.vtensor<[?,256],f16> loc(#loc848)
    torch.bind_symbolic_shape %295, [%41], affine_map<()[s0] -> (s0 * 64, 256)> : !torch.vtensor<[?,256],f16> loc(#loc849)
    %296 = torch.aten.matmul %295, %293 : !torch.vtensor<[?,256],f16>, !torch.vtensor<[256,23],f16> -> !torch.vtensor<[?,23],f16> loc(#loc850)
    torch.bind_symbolic_shape %296, [%41], affine_map<()[s0] -> (s0 * 64, 23)> : !torch.vtensor<[?,23],f16> loc(#loc851)
    %int4_313 = torch.constant.int 4 loc(#loc852)
    %int23_314 = torch.constant.int 23 loc(#loc853)
    %297 = torch.prim.ListConstruct %int4_313, %47, %int23_314 : (!torch.int, !torch.int, !torch.int) -> !torch.list<int> loc(#loc854)
    %298 = torch.aten.view %296, %297 : !torch.vtensor<[?,23],f16>, !torch.list<int> -> !torch.vtensor<[4,?,23],f16> loc(#loc855)
    torch.bind_symbolic_shape %298, [%41], affine_map<()[s0] -> (4, s0 * 16, 23)> : !torch.vtensor<[4,?,23],f16> loc(#loc856)
    %299 = torch.aten.mul.Tensor %291, %298 : !torch.vtensor<[4,?,23],f16>, !torch.vtensor<[4,?,23],f16> -> !torch.vtensor<[4,?,23],f16> loc(#loc857)
    torch.bind_symbolic_shape %299, [%41], affine_map<()[s0] -> (4, s0 * 16, 23)> : !torch.vtensor<[4,?,23],f16> loc(#loc858)
    %int-2_315 = torch.constant.int -2 loc(#loc859)
    %int-1_316 = torch.constant.int -1 loc(#loc860)
    %300 = torch.aten.transpose.int %12, %int-2_315, %int-1_316 : !torch.vtensor<[256,23],f16>, !torch.int, !torch.int -> !torch.vtensor<[23,256],f16> loc(#loc861)
    %int5_317 = torch.constant.int 5 loc(#loc862)
    %301 = torch.prims.convert_element_type %300, %int5_317 : !torch.vtensor<[23,256],f16>, !torch.int -> !torch.vtensor<[23,256],f16> loc(#loc863)
    %int23_318 = torch.constant.int 23 loc(#loc864)
    %302 = torch.prim.ListConstruct %60, %int23_318 : (!torch.int, !torch.int) -> !torch.list<int> loc(#loc865)
    %303 = torch.aten.view %299, %302 : !torch.vtensor<[4,?,23],f16>, !torch.list<int> -> !torch.vtensor<[?,23],f16> loc(#loc866)
    torch.bind_symbolic_shape %303, [%41], affine_map<()[s0] -> (s0 * 64, 23)> : !torch.vtensor<[?,23],f16> loc(#loc867)
    %304 = torch.aten.matmul %303, %301 : !torch.vtensor<[?,23],f16>, !torch.vtensor<[23,256],f16> -> !torch.vtensor<[?,256],f16> loc(#loc868)
    torch.bind_symbolic_shape %304, [%41], affine_map<()[s0] -> (s0 * 64, 256)> : !torch.vtensor<[?,256],f16> loc(#loc869)
    %int4_319 = torch.constant.int 4 loc(#loc870)
    %int256_320 = torch.constant.int 256 loc(#loc871)
    %305 = torch.prim.ListConstruct %int4_319, %47, %int256_320 : (!torch.int, !torch.int, !torch.int) -> !torch.list<int> loc(#loc872)
    %306 = torch.aten.view %304, %305 : !torch.vtensor<[?,256],f16>, !torch.list<int> -> !torch.vtensor<[4,?,256],f16> loc(#loc873)
    torch.bind_symbolic_shape %306, [%41], affine_map<()[s0] -> (4, s0 * 16, 256)> : !torch.vtensor<[4,?,256],f16> loc(#loc874)
    %int1_321 = torch.constant.int 1 loc(#loc875)
    %307 = torch.aten.add.Tensor %273, %306, %int1_321 : !torch.vtensor<[4,?,256],f16>, !torch.vtensor<[4,?,256],f16>, !torch.int -> !torch.vtensor<[4,?,256],f16> loc(#loc876)
    torch.bind_symbolic_shape %307, [%41], affine_map<()[s0] -> (4, s0 * 16, 256)> : !torch.vtensor<[4,?,256],f16> loc(#loc877)
    %int6_322 = torch.constant.int 6 loc(#loc878)
    %308 = torch.prims.convert_element_type %307, %int6_322 : !torch.vtensor<[4,?,256],f16>, !torch.int -> !torch.vtensor<[4,?,256],f32> loc(#loc879)
    torch.bind_symbolic_shape %308, [%41], affine_map<()[s0] -> (4, s0 * 16, 256)> : !torch.vtensor<[4,?,256],f32> loc(#loc880)
    %int2_323 = torch.constant.int 2 loc(#loc881)
    %309 = torch.aten.pow.Tensor_Scalar %308, %int2_323 : !torch.vtensor<[4,?,256],f32>, !torch.int -> !torch.vtensor<[4,?,256],f32> loc(#loc882)
    torch.bind_symbolic_shape %309, [%41], affine_map<()[s0] -> (4, s0 * 16, 256)> : !torch.vtensor<[4,?,256],f32> loc(#loc883)
    %int-1_324 = torch.constant.int -1 loc(#loc884)
    %310 = torch.prim.ListConstruct %int-1_324 : (!torch.int) -> !torch.list<int> loc(#loc885)
    %true_325 = torch.constant.bool true loc(#loc886)
    %none_326 = torch.constant.none loc(#loc887)
    %311 = torch.aten.mean.dim %309, %310, %true_325, %none_326 : !torch.vtensor<[4,?,256],f32>, !torch.list<int>, !torch.bool, !torch.none -> !torch.vtensor<[4,?,1],f32> loc(#loc888)
    torch.bind_symbolic_shape %311, [%41], affine_map<()[s0] -> (4, s0 * 16, 1)> : !torch.vtensor<[4,?,1],f32> loc(#loc889)
    %float1.000000e-02_327 = torch.constant.float 1.000000e-02 loc(#loc890)
    %int1_328 = torch.constant.int 1 loc(#loc891)
    %312 = torch.aten.add.Scalar %311, %float1.000000e-02_327, %int1_328 : !torch.vtensor<[4,?,1],f32>, !torch.float, !torch.int -> !torch.vtensor<[4,?,1],f32> loc(#loc892)
    torch.bind_symbolic_shape %312, [%41], affine_map<()[s0] -> (4, s0 * 16, 1)> : !torch.vtensor<[4,?,1],f32> loc(#loc893)
    %313 = torch.aten.rsqrt %312 : !torch.vtensor<[4,?,1],f32> -> !torch.vtensor<[4,?,1],f32> loc(#loc894)
    torch.bind_symbolic_shape %313, [%41], affine_map<()[s0] -> (4, s0 * 16, 1)> : !torch.vtensor<[4,?,1],f32> loc(#loc895)
    %314 = torch.aten.mul.Tensor %308, %313 : !torch.vtensor<[4,?,256],f32>, !torch.vtensor<[4,?,1],f32> -> !torch.vtensor<[4,?,256],f32> loc(#loc896)
    torch.bind_symbolic_shape %314, [%41], affine_map<()[s0] -> (4, s0 * 16, 256)> : !torch.vtensor<[4,?,256],f32> loc(#loc897)
    %int5_329 = torch.constant.int 5 loc(#loc898)
    %315 = torch.prims.convert_element_type %314, %int5_329 : !torch.vtensor<[4,?,256],f32>, !torch.int -> !torch.vtensor<[4,?,256],f16> loc(#loc899)
    torch.bind_symbolic_shape %315, [%41], affine_map<()[s0] -> (4, s0 * 16, 256)> : !torch.vtensor<[4,?,256],f16> loc(#loc900)
    %316 = torch.aten.mul.Tensor %13, %315 : !torch.vtensor<[256],f32>, !torch.vtensor<[4,?,256],f16> -> !torch.vtensor<[4,?,256],f32> loc(#loc901)
    torch.bind_symbolic_shape %316, [%41], affine_map<()[s0] -> (4, s0 * 16, 256)> : !torch.vtensor<[4,?,256],f32> loc(#loc902)
    %int5_330 = torch.constant.int 5 loc(#loc903)
    %317 = torch.prims.convert_element_type %316, %int5_330 : !torch.vtensor<[4,?,256],f32>, !torch.int -> !torch.vtensor<[4,?,256],f16> loc(#loc904)
    torch.bind_symbolic_shape %317, [%41], affine_map<()[s0] -> (4, s0 * 16, 256)> : !torch.vtensor<[4,?,256],f16> loc(#loc905)
    %int-2_331 = torch.constant.int -2 loc(#loc906)
    %int-1_332 = torch.constant.int -1 loc(#loc907)
    %318 = torch.aten.transpose.int %14, %int-2_331, %int-1_332 : !torch.vtensor<[256,256],f16>, !torch.int, !torch.int -> !torch.vtensor<[256,256],f16> loc(#loc908)
    %int5_333 = torch.constant.int 5 loc(#loc909)
    %319 = torch.prims.convert_element_type %318, %int5_333 : !torch.vtensor<[256,256],f16>, !torch.int -> !torch.vtensor<[256,256],f16> loc(#loc910)
    %int256_334 = torch.constant.int 256 loc(#loc911)
    %320 = torch.prim.ListConstruct %60, %int256_334 : (!torch.int, !torch.int) -> !torch.list<int> loc(#loc912)
    %321 = torch.aten.view %317, %320 : !torch.vtensor<[4,?,256],f16>, !torch.list<int> -> !torch.vtensor<[?,256],f16> loc(#loc913)
    torch.bind_symbolic_shape %321, [%41], affine_map<()[s0] -> (s0 * 64, 256)> : !torch.vtensor<[?,256],f16> loc(#loc914)
    %322 = torch.aten.matmul %321, %319 : !torch.vtensor<[?,256],f16>, !torch.vtensor<[256,256],f16> -> !torch.vtensor<[?,256],f16> loc(#loc915)
    torch.bind_symbolic_shape %322, [%41], affine_map<()[s0] -> (s0 * 64, 256)> : !torch.vtensor<[?,256],f16> loc(#loc916)
    %int4_335 = torch.constant.int 4 loc(#loc917)
    %int256_336 = torch.constant.int 256 loc(#loc918)
    %323 = torch.prim.ListConstruct %int4_335, %47, %int256_336 : (!torch.int, !torch.int, !torch.int) -> !torch.list<int> loc(#loc919)
    %324 = torch.aten.view %322, %323 : !torch.vtensor<[?,256],f16>, !torch.list<int> -> !torch.vtensor<[4,?,256],f16> loc(#loc920)
    torch.bind_symbolic_shape %324, [%41], affine_map<()[s0] -> (4, s0 * 16, 256)> : !torch.vtensor<[4,?,256],f16> loc(#loc921)
    %int-2_337 = torch.constant.int -2 loc(#loc922)
    %int-1_338 = torch.constant.int -1 loc(#loc923)
    %325 = torch.aten.transpose.int %15, %int-2_337, %int-1_338 : !torch.vtensor<[128,256],f16>, !torch.int, !torch.int -> !torch.vtensor<[256,128],f16> loc(#loc924)
    %int5_339 = torch.constant.int 5 loc(#loc925)
    %326 = torch.prims.convert_element_type %325, %int5_339 : !torch.vtensor<[256,128],f16>, !torch.int -> !torch.vtensor<[256,128],f16> loc(#loc926)
    %int256_340 = torch.constant.int 256 loc(#loc927)
    %327 = torch.prim.ListConstruct %60, %int256_340 : (!torch.int, !torch.int) -> !torch.list<int> loc(#loc928)
    %328 = torch.aten.view %317, %327 : !torch.vtensor<[4,?,256],f16>, !torch.list<int> -> !torch.vtensor<[?,256],f16> loc(#loc929)
    torch.bind_symbolic_shape %328, [%41], affine_map<()[s0] -> (s0 * 64, 256)> : !torch.vtensor<[?,256],f16> loc(#loc930)
    %329 = torch.aten.matmul %328, %326 : !torch.vtensor<[?,256],f16>, !torch.vtensor<[256,128],f16> -> !torch.vtensor<[?,128],f16> loc(#loc931)
    torch.bind_symbolic_shape %329, [%41], affine_map<()[s0] -> (s0 * 64, 128)> : !torch.vtensor<[?,128],f16> loc(#loc932)
    %int4_341 = torch.constant.int 4 loc(#loc933)
    %int128_342 = torch.constant.int 128 loc(#loc934)
    %330 = torch.prim.ListConstruct %int4_341, %47, %int128_342 : (!torch.int, !torch.int, !torch.int) -> !torch.list<int> loc(#loc935)
    %331 = torch.aten.view %329, %330 : !torch.vtensor<[?,128],f16>, !torch.list<int> -> !torch.vtensor<[4,?,128],f16> loc(#loc936)
    torch.bind_symbolic_shape %331, [%41], affine_map<()[s0] -> (4, s0 * 16, 128)> : !torch.vtensor<[4,?,128],f16> loc(#loc937)
    %int-2_343 = torch.constant.int -2 loc(#loc938)
    %int-1_344 = torch.constant.int -1 loc(#loc939)
    %332 = torch.aten.transpose.int %16, %int-2_343, %int-1_344 : !torch.vtensor<[128,256],f16>, !torch.int, !torch.int -> !torch.vtensor<[256,128],f16> loc(#loc940)
    %int5_345 = torch.constant.int 5 loc(#loc941)
    %333 = torch.prims.convert_element_type %332, %int5_345 : !torch.vtensor<[256,128],f16>, !torch.int -> !torch.vtensor<[256,128],f16> loc(#loc942)
    %int256_346 = torch.constant.int 256 loc(#loc943)
    %334 = torch.prim.ListConstruct %60, %int256_346 : (!torch.int, !torch.int) -> !torch.list<int> loc(#loc944)
    %335 = torch.aten.view %317, %334 : !torch.vtensor<[4,?,256],f16>, !torch.list<int> -> !torch.vtensor<[?,256],f16> loc(#loc945)
    torch.bind_symbolic_shape %335, [%41], affine_map<()[s0] -> (s0 * 64, 256)> : !torch.vtensor<[?,256],f16> loc(#loc946)
    %336 = torch.aten.matmul %335, %333 : !torch.vtensor<[?,256],f16>, !torch.vtensor<[256,128],f16> -> !torch.vtensor<[?,128],f16> loc(#loc947)
    torch.bind_symbolic_shape %336, [%41], affine_map<()[s0] -> (s0 * 64, 128)> : !torch.vtensor<[?,128],f16> loc(#loc948)
    %int4_347 = torch.constant.int 4 loc(#loc949)
    %int128_348 = torch.constant.int 128 loc(#loc950)
    %337 = torch.prim.ListConstruct %int4_347, %47, %int128_348 : (!torch.int, !torch.int, !torch.int) -> !torch.list<int> loc(#loc951)
    %338 = torch.aten.view %336, %337 : !torch.vtensor<[?,128],f16>, !torch.list<int> -> !torch.vtensor<[4,?,128],f16> loc(#loc952)
    torch.bind_symbolic_shape %338, [%41], affine_map<()[s0] -> (4, s0 * 16, 128)> : !torch.vtensor<[4,?,128],f16> loc(#loc953)
    %int4_349 = torch.constant.int 4 loc(#loc954)
    %int8_350 = torch.constant.int 8 loc(#loc955)
    %int32_351 = torch.constant.int 32 loc(#loc956)
    %339 = torch.prim.ListConstruct %int4_349, %47, %int8_350, %int32_351 : (!torch.int, !torch.int, !torch.int, !torch.int) -> !torch.list<int> loc(#loc957)
    %340 = torch.aten.view %324, %339 : !torch.vtensor<[4,?,256],f16>, !torch.list<int> -> !torch.vtensor<[4,?,8,32],f16> loc(#loc958)
    torch.bind_symbolic_shape %340, [%41], affine_map<()[s0] -> (4, s0 * 16, 8, 32)> : !torch.vtensor<[4,?,8,32],f16> loc(#loc959)
    %int4_352 = torch.constant.int 4 loc(#loc960)
    %int4_353 = torch.constant.int 4 loc(#loc961)
    %int32_354 = torch.constant.int 32 loc(#loc962)
    %341 = torch.prim.ListConstruct %int4_352, %47, %int4_353, %int32_354 : (!torch.int, !torch.int, !torch.int, !torch.int) -> !torch.list<int> loc(#loc963)
    %342 = torch.aten.view %331, %341 : !torch.vtensor<[4,?,128],f16>, !torch.list<int> -> !torch.vtensor<[4,?,4,32],f16> loc(#loc964)
    torch.bind_symbolic_shape %342, [%41], affine_map<()[s0] -> (4, s0 * 16, 4, 32)> : !torch.vtensor<[4,?,4,32],f16> loc(#loc965)
    %int4_355 = torch.constant.int 4 loc(#loc966)
    %int4_356 = torch.constant.int 4 loc(#loc967)
    %int32_357 = torch.constant.int 32 loc(#loc968)
    %343 = torch.prim.ListConstruct %int4_355, %47, %int4_356, %int32_357 : (!torch.int, !torch.int, !torch.int, !torch.int) -> !torch.list<int> loc(#loc969)
    %344 = torch.aten.view %338, %343 : !torch.vtensor<[4,?,128],f16>, !torch.list<int> -> !torch.vtensor<[4,?,4,32],f16> loc(#loc970)
    torch.bind_symbolic_shape %344, [%41], affine_map<()[s0] -> (4, s0 * 16, 4, 32)> : !torch.vtensor<[4,?,4,32],f16> loc(#loc971)
    %int0_358 = torch.constant.int 0 loc(#loc972)
    %none_359 = torch.constant.none loc(#loc973)
    %none_360 = torch.constant.none loc(#loc974)
    %cpu_361 = torch.constant.device "cpu" loc(#loc975)
    %false_362 = torch.constant.bool false loc(#loc976)
    %345 = torch.aten.arange.start %int0_358, %47, %none_359, %none_360, %cpu_361, %false_362 : !torch.int, !torch.int, !torch.none, !torch.none, !torch.Device, !torch.bool -> !torch.vtensor<[?],si64> loc(#loc977)
    torch.bind_symbolic_shape %345, [%41], affine_map<()[s0] -> (s0 * 16)> : !torch.vtensor<[?],si64> loc(#loc978)
    %int0_363 = torch.constant.int 0 loc(#loc979)
    %346 = torch.aten.unsqueeze %345, %int0_363 : !torch.vtensor<[?],si64>, !torch.int -> !torch.vtensor<[1,?],si64> loc(#loc980)
    torch.bind_symbolic_shape %346, [%41], affine_map<()[s0] -> (1, s0 * 16)> : !torch.vtensor<[1,?],si64> loc(#loc981)
    %int0_364 = torch.constant.int 0 loc(#loc982)
    %int32_365 = torch.constant.int 32 loc(#loc983)
    %int2_366 = torch.constant.int 2 loc(#loc984)
    %none_367 = torch.constant.none loc(#loc985)
    %none_368 = torch.constant.none loc(#loc986)
    %cpu_369 = torch.constant.device "cpu" loc(#loc987)
    %false_370 = torch.constant.bool false loc(#loc988)
    %347 = torch.aten.arange.start_step %int0_364, %int32_365, %int2_366, %none_367, %none_368, %cpu_369, %false_370 : !torch.int, !torch.int, !torch.int, !torch.none, !torch.none, !torch.Device, !torch.bool -> !torch.vtensor<[16],si64> loc(#loc989)
    %int6_371 = torch.constant.int 6 loc(#loc990)
    %348 = torch.prims.convert_element_type %347, %int6_371 : !torch.vtensor<[16],si64>, !torch.int -> !torch.vtensor<[16],f32> loc(#loc991)
    %int32_372 = torch.constant.int 32 loc(#loc992)
    %349 = torch.aten.div.Scalar %348, %int32_372 : !torch.vtensor<[16],f32>, !torch.int -> !torch.vtensor<[16],f32> loc(#loc993)
    %float5.000000e05_373 = torch.constant.float 5.000000e+05 loc(#loc994)
    %350 = torch.aten.pow.Scalar %float5.000000e05_373, %349 : !torch.float, !torch.vtensor<[16],f32> -> !torch.vtensor<[16],f32> loc(#loc995)
    %351 = torch.aten.reciprocal %350 : !torch.vtensor<[16],f32> -> !torch.vtensor<[16],f32> loc(#loc996)
    %float1.000000e00_374 = torch.constant.float 1.000000e+00 loc(#loc997)
    %352 = torch.aten.mul.Scalar %351, %float1.000000e00_374 : !torch.vtensor<[16],f32>, !torch.float -> !torch.vtensor<[16],f32> loc(#loc998)
    %none_375 = torch.constant.none loc(#loc999)
    %353 = torch.aten.clone %17, %none_375 : !torch.vtensor<[],f32>, !torch.none -> !torch.vtensor<[],f32> loc(#loc1000)
    %int0_376 = torch.constant.int 0 loc(#loc1001)
    %354 = torch.aten.unsqueeze %352, %int0_376 : !torch.vtensor<[16],f32>, !torch.int -> !torch.vtensor<[1,16],f32> loc(#loc1002)
    %int1_377 = torch.constant.int 1 loc(#loc1003)
    %int0_378 = torch.constant.int 0 loc(#loc1004)
    %int9223372036854775807_379 = torch.constant.int 9223372036854775807 loc(#loc1005)
    %int1_380 = torch.constant.int 1 loc(#loc1006)
    %355 = torch.aten.slice.Tensor %354, %int1_377, %int0_378, %int9223372036854775807_379, %int1_380 : !torch.vtensor<[1,16],f32>, !torch.int, !torch.int, !torch.int, !torch.int -> !torch.vtensor<[1,16],f32> loc(#loc1007)
    %int2_381 = torch.constant.int 2 loc(#loc1008)
    %356 = torch.aten.unsqueeze %355, %int2_381 : !torch.vtensor<[1,16],f32>, !torch.int -> !torch.vtensor<[1,16,1],f32> loc(#loc1009)
    %int6_382 = torch.constant.int 6 loc(#loc1010)
    %357 = torch.prims.convert_element_type %356, %int6_382 : !torch.vtensor<[1,16,1],f32>, !torch.int -> !torch.vtensor<[1,16,1],f32> loc(#loc1011)
    %int1_383 = torch.constant.int 1 loc(#loc1012)
    %int-1_384 = torch.constant.int -1 loc(#loc1013)
    %int1_385 = torch.constant.int 1 loc(#loc1014)
    %358 = torch.prim.ListConstruct %int1_383, %int-1_384, %int1_385 : (!torch.int, !torch.int, !torch.int) -> !torch.list<int> loc(#loc1015)
    %false_386 = torch.constant.bool false loc(#loc1016)
    %359 = torch.aten.expand %357, %358, %false_386 : !torch.vtensor<[1,16,1],f32>, !torch.list<int>, !torch.bool -> !torch.vtensor<[1,16,1],f32> loc(#loc1017)
    %int0_387 = torch.constant.int 0 loc(#loc1018)
    %int0_388 = torch.constant.int 0 loc(#loc1019)
    %int9223372036854775807_389 = torch.constant.int 9223372036854775807 loc(#loc1020)
    %int1_390 = torch.constant.int 1 loc(#loc1021)
    %360 = torch.aten.slice.Tensor %346, %int0_387, %int0_388, %int9223372036854775807_389, %int1_390 : !torch.vtensor<[1,?],si64>, !torch.int, !torch.int, !torch.int, !torch.int -> !torch.vtensor<[1,?],si64> loc(#loc1022)
    torch.bind_symbolic_shape %360, [%41], affine_map<()[s0] -> (1, s0 * 16)> : !torch.vtensor<[1,?],si64> loc(#loc1023)
    %int1_391 = torch.constant.int 1 loc(#loc1024)
    %361 = torch.aten.unsqueeze %360, %int1_391 : !torch.vtensor<[1,?],si64>, !torch.int -> !torch.vtensor<[1,1,?],si64> loc(#loc1025)
    torch.bind_symbolic_shape %361, [%41], affine_map<()[s0] -> (1, 1, s0 * 16)> : !torch.vtensor<[1,1,?],si64> loc(#loc1026)
    %int2_392 = torch.constant.int 2 loc(#loc1027)
    %int0_393 = torch.constant.int 0 loc(#loc1028)
    %int9223372036854775807_394 = torch.constant.int 9223372036854775807 loc(#loc1029)
    %int1_395 = torch.constant.int 1 loc(#loc1030)
    %362 = torch.aten.slice.Tensor %361, %int2_392, %int0_393, %int9223372036854775807_394, %int1_395 : !torch.vtensor<[1,1,?],si64>, !torch.int, !torch.int, !torch.int, !torch.int -> !torch.vtensor<[1,1,?],si64> loc(#loc1031)
    torch.bind_symbolic_shape %362, [%41], affine_map<()[s0] -> (1, 1, s0 * 16)> : !torch.vtensor<[1,1,?],si64> loc(#loc1032)
    %int6_396 = torch.constant.int 6 loc(#loc1033)
    %363 = torch.prims.convert_element_type %362, %int6_396 : !torch.vtensor<[1,1,?],si64>, !torch.int -> !torch.vtensor<[1,1,?],f32> loc(#loc1034)
    torch.bind_symbolic_shape %363, [%41], affine_map<()[s0] -> (1, 1, s0 * 16)> : !torch.vtensor<[1,1,?],f32> loc(#loc1035)
    %364 = torch.aten.matmul %359, %363 : !torch.vtensor<[1,16,1],f32>, !torch.vtensor<[1,1,?],f32> -> !torch.vtensor<[1,16,?],f32> loc(#loc1036)
    torch.bind_symbolic_shape %364, [%41], affine_map<()[s0] -> (1, 16, s0 * 16)> : !torch.vtensor<[1,16,?],f32> loc(#loc1037)
    %int1_397 = torch.constant.int 1 loc(#loc1038)
    %int2_398 = torch.constant.int 2 loc(#loc1039)
    %365 = torch.aten.transpose.int %364, %int1_397, %int2_398 : !torch.vtensor<[1,16,?],f32>, !torch.int, !torch.int -> !torch.vtensor<[1,?,16],f32> loc(#loc1040)
    torch.bind_symbolic_shape %365, [%41], affine_map<()[s0] -> (1, s0 * 16, 16)> : !torch.vtensor<[1,?,16],f32> loc(#loc1041)
    %366 = torch.aten.cos %365 : !torch.vtensor<[1,?,16],f32> -> !torch.vtensor<[1,?,16],f32> loc(#loc1042)
    torch.bind_symbolic_shape %366, [%41], affine_map<()[s0] -> (1, s0 * 16, 16)> : !torch.vtensor<[1,?,16],f32> loc(#loc1043)
    %367 = torch.aten.mul.Tensor %366, %353 : !torch.vtensor<[1,?,16],f32>, !torch.vtensor<[],f32> -> !torch.vtensor<[1,?,16],f32> loc(#loc1044)
    torch.bind_symbolic_shape %367, [%41], affine_map<()[s0] -> (1, s0 * 16, 16)> : !torch.vtensor<[1,?,16],f32> loc(#loc1045)
    %int5_399 = torch.constant.int 5 loc(#loc1046)
    %368 = torch.prims.convert_element_type %367, %int5_399 : !torch.vtensor<[1,?,16],f32>, !torch.int -> !torch.vtensor<[1,?,16],f16> loc(#loc1047)
    torch.bind_symbolic_shape %368, [%41], affine_map<()[s0] -> (1, s0 * 16, 16)> : !torch.vtensor<[1,?,16],f16> loc(#loc1048)
    %369 = torch.aten.sin %365 : !torch.vtensor<[1,?,16],f32> -> !torch.vtensor<[1,?,16],f32> loc(#loc1049)
    torch.bind_symbolic_shape %369, [%41], affine_map<()[s0] -> (1, s0 * 16, 16)> : !torch.vtensor<[1,?,16],f32> loc(#loc1050)
    %370 = torch.aten.mul.Tensor %369, %353 : !torch.vtensor<[1,?,16],f32>, !torch.vtensor<[],f32> -> !torch.vtensor<[1,?,16],f32> loc(#loc1051)
    torch.bind_symbolic_shape %370, [%41], affine_map<()[s0] -> (1, s0 * 16, 16)> : !torch.vtensor<[1,?,16],f32> loc(#loc1052)
    %int5_400 = torch.constant.int 5 loc(#loc1053)
    %371 = torch.prims.convert_element_type %370, %int5_400 : !torch.vtensor<[1,?,16],f32>, !torch.int -> !torch.vtensor<[1,?,16],f16> loc(#loc1054)
    torch.bind_symbolic_shape %371, [%41], affine_map<()[s0] -> (1, s0 * 16, 16)> : !torch.vtensor<[1,?,16],f16> loc(#loc1055)
    %int2_401 = torch.constant.int 2 loc(#loc1056)
    %372 = torch.aten.unsqueeze %368, %int2_401 : !torch.vtensor<[1,?,16],f16>, !torch.int -> !torch.vtensor<[1,?,1,16],f16> loc(#loc1057)
    torch.bind_symbolic_shape %372, [%41], affine_map<()[s0] -> (1, s0 * 16, 1, 16)> : !torch.vtensor<[1,?,1,16],f16> loc(#loc1058)
    %int2_402 = torch.constant.int 2 loc(#loc1059)
    %373 = torch.aten.unsqueeze %371, %int2_402 : !torch.vtensor<[1,?,16],f16>, !torch.int -> !torch.vtensor<[1,?,1,16],f16> loc(#loc1060)
    torch.bind_symbolic_shape %373, [%41], affine_map<()[s0] -> (1, s0 * 16, 1, 16)> : !torch.vtensor<[1,?,1,16],f16> loc(#loc1061)
    %int5_403 = torch.constant.int 5 loc(#loc1062)
    %374 = torch.prims.convert_element_type %340, %int5_403 : !torch.vtensor<[4,?,8,32],f16>, !torch.int -> !torch.vtensor<[4,?,8,32],f16> loc(#loc1063)
    torch.bind_symbolic_shape %374, [%41], affine_map<()[s0] -> (4, s0 * 16, 8, 32)> : !torch.vtensor<[4,?,8,32],f16> loc(#loc1064)
    %int3_404 = torch.constant.int 3 loc(#loc1065)
    %int0_405 = torch.constant.int 0 loc(#loc1066)
    %int32_406 = torch.constant.int 32 loc(#loc1067)
    %int2_407 = torch.constant.int 2 loc(#loc1068)
    %375 = torch.aten.slice.Tensor %374, %int3_404, %int0_405, %int32_406, %int2_407 : !torch.vtensor<[4,?,8,32],f16>, !torch.int, !torch.int, !torch.int, !torch.int -> !torch.vtensor<[4,?,8,16],f16> loc(#loc1069)
    torch.bind_symbolic_shape %375, [%41], affine_map<()[s0] -> (4, s0 * 16, 8, 16)> : !torch.vtensor<[4,?,8,16],f16> loc(#loc1070)
    %int3_408 = torch.constant.int 3 loc(#loc1071)
    %int1_409 = torch.constant.int 1 loc(#loc1072)
    %int32_410 = torch.constant.int 32 loc(#loc1073)
    %int2_411 = torch.constant.int 2 loc(#loc1074)
    %376 = torch.aten.slice.Tensor %374, %int3_408, %int1_409, %int32_410, %int2_411 : !torch.vtensor<[4,?,8,32],f16>, !torch.int, !torch.int, !torch.int, !torch.int -> !torch.vtensor<[4,?,8,16],f16> loc(#loc1075)
    torch.bind_symbolic_shape %376, [%41], affine_map<()[s0] -> (4, s0 * 16, 8, 16)> : !torch.vtensor<[4,?,8,16],f16> loc(#loc1076)
    %377 = torch.aten.mul.Tensor %375, %372 : !torch.vtensor<[4,?,8,16],f16>, !torch.vtensor<[1,?,1,16],f16> -> !torch.vtensor<[4,?,8,16],f16> loc(#loc1077)
    torch.bind_symbolic_shape %377, [%41], affine_map<()[s0] -> (4, s0 * 16, 8, 16)> : !torch.vtensor<[4,?,8,16],f16> loc(#loc1078)
    %378 = torch.aten.mul.Tensor %376, %373 : !torch.vtensor<[4,?,8,16],f16>, !torch.vtensor<[1,?,1,16],f16> -> !torch.vtensor<[4,?,8,16],f16> loc(#loc1079)
    torch.bind_symbolic_shape %378, [%41], affine_map<()[s0] -> (4, s0 * 16, 8, 16)> : !torch.vtensor<[4,?,8,16],f16> loc(#loc1080)
    %int1_412 = torch.constant.int 1 loc(#loc1081)
    %379 = torch.aten.sub.Tensor %377, %378, %int1_412 : !torch.vtensor<[4,?,8,16],f16>, !torch.vtensor<[4,?,8,16],f16>, !torch.int -> !torch.vtensor<[4,?,8,16],f16> loc(#loc1082)
    torch.bind_symbolic_shape %379, [%41], affine_map<()[s0] -> (4, s0 * 16, 8, 16)> : !torch.vtensor<[4,?,8,16],f16> loc(#loc1083)
    %380 = torch.aten.mul.Tensor %376, %372 : !torch.vtensor<[4,?,8,16],f16>, !torch.vtensor<[1,?,1,16],f16> -> !torch.vtensor<[4,?,8,16],f16> loc(#loc1084)
    torch.bind_symbolic_shape %380, [%41], affine_map<()[s0] -> (4, s0 * 16, 8, 16)> : !torch.vtensor<[4,?,8,16],f16> loc(#loc1085)
    %381 = torch.aten.mul.Tensor %375, %373 : !torch.vtensor<[4,?,8,16],f16>, !torch.vtensor<[1,?,1,16],f16> -> !torch.vtensor<[4,?,8,16],f16> loc(#loc1086)
    torch.bind_symbolic_shape %381, [%41], affine_map<()[s0] -> (4, s0 * 16, 8, 16)> : !torch.vtensor<[4,?,8,16],f16> loc(#loc1087)
    %int1_413 = torch.constant.int 1 loc(#loc1088)
    %382 = torch.aten.add.Tensor %380, %381, %int1_413 : !torch.vtensor<[4,?,8,16],f16>, !torch.vtensor<[4,?,8,16],f16>, !torch.int -> !torch.vtensor<[4,?,8,16],f16> loc(#loc1089)
    torch.bind_symbolic_shape %382, [%41], affine_map<()[s0] -> (4, s0 * 16, 8, 16)> : !torch.vtensor<[4,?,8,16],f16> loc(#loc1090)
    %383 = torch_c.to_builtin_tensor %379 : !torch.vtensor<[4,?,8,16],f16> -> tensor<4x?x8x16xf16> loc(#loc1091)
    %cast_414 = tensor.cast %383 : tensor<4x?x8x16xf16> to tensor<?x?x?x?xf16> loc(#loc1092)
    %384 = torch_c.to_builtin_tensor %382 : !torch.vtensor<[4,?,8,16],f16> -> tensor<4x?x8x16xf16> loc(#loc1093)
    %cast_415 = tensor.cast %384 : tensor<4x?x8x16xf16> to tensor<?x?x?x?xf16> loc(#loc1094)
    %385 = util.call @rope_select_concat_BS_SL_HEADS_HALFDIM_f16_BS_SL_HEADS_HALFDIM_f16_BS_SL_HEADS_TWO_2_HALFDIM_f16(%cast_414, %cast_415) : (tensor<?x?x?x?xf16>, tensor<?x?x?x?xf16>) -> tensor<?x?x?x2x?xf16> loc(#loc1095)
    %cast_416 = tensor.cast %385 : tensor<?x?x?x2x?xf16> to tensor<4x?x8x2x16xf16> loc(#loc1096)
    %386 = torch_c.from_builtin_tensor %cast_416 : tensor<4x?x8x2x16xf16> -> !torch.vtensor<[4,?,8,2,16],f16> loc(#loc1097)
    torch.bind_symbolic_shape %386, [%41], affine_map<()[s0] -> (4, s0 * 16, 8, 2, 16)> : !torch.vtensor<[4,?,8,2,16],f16> loc(#loc1098)
    %int4_417 = torch.constant.int 4 loc(#loc1099)
    %int8_418 = torch.constant.int 8 loc(#loc1100)
    %int32_419 = torch.constant.int 32 loc(#loc1101)
    %387 = torch.prim.ListConstruct %int4_417, %47, %int8_418, %int32_419 : (!torch.int, !torch.int, !torch.int, !torch.int) -> !torch.list<int> loc(#loc1102)
    %388 = torch.aten.view %386, %387 : !torch.vtensor<[4,?,8,2,16],f16>, !torch.list<int> -> !torch.vtensor<[4,?,8,32],f16> loc(#loc1103)
    torch.bind_symbolic_shape %388, [%41], affine_map<()[s0] -> (4, s0 * 16, 8, 32)> : !torch.vtensor<[4,?,8,32],f16> loc(#loc1104)
    %int5_420 = torch.constant.int 5 loc(#loc1105)
    %389 = torch.prims.convert_element_type %388, %int5_420 : !torch.vtensor<[4,?,8,32],f16>, !torch.int -> !torch.vtensor<[4,?,8,32],f16> loc(#loc1106)
    torch.bind_symbolic_shape %389, [%41], affine_map<()[s0] -> (4, s0 * 16, 8, 32)> : !torch.vtensor<[4,?,8,32],f16> loc(#loc1107)
    %int0_421 = torch.constant.int 0 loc(#loc1108)
    %none_422 = torch.constant.none loc(#loc1109)
    %none_423 = torch.constant.none loc(#loc1110)
    %cpu_424 = torch.constant.device "cpu" loc(#loc1111)
    %false_425 = torch.constant.bool false loc(#loc1112)
    %390 = torch.aten.arange.start %int0_421, %47, %none_422, %none_423, %cpu_424, %false_425 : !torch.int, !torch.int, !torch.none, !torch.none, !torch.Device, !torch.bool -> !torch.vtensor<[?],si64> loc(#loc1113)
    torch.bind_symbolic_shape %390, [%41], affine_map<()[s0] -> (s0 * 16)> : !torch.vtensor<[?],si64> loc(#loc1114)
    %int0_426 = torch.constant.int 0 loc(#loc1115)
    %391 = torch.aten.unsqueeze %390, %int0_426 : !torch.vtensor<[?],si64>, !torch.int -> !torch.vtensor<[1,?],si64> loc(#loc1116)
    torch.bind_symbolic_shape %391, [%41], affine_map<()[s0] -> (1, s0 * 16)> : !torch.vtensor<[1,?],si64> loc(#loc1117)
    %int0_427 = torch.constant.int 0 loc(#loc1118)
    %int32_428 = torch.constant.int 32 loc(#loc1119)
    %int2_429 = torch.constant.int 2 loc(#loc1120)
    %none_430 = torch.constant.none loc(#loc1121)
    %none_431 = torch.constant.none loc(#loc1122)
    %cpu_432 = torch.constant.device "cpu" loc(#loc1123)
    %false_433 = torch.constant.bool false loc(#loc1124)
    %392 = torch.aten.arange.start_step %int0_427, %int32_428, %int2_429, %none_430, %none_431, %cpu_432, %false_433 : !torch.int, !torch.int, !torch.int, !torch.none, !torch.none, !torch.Device, !torch.bool -> !torch.vtensor<[16],si64> loc(#loc1125)
    %int6_434 = torch.constant.int 6 loc(#loc1126)
    %393 = torch.prims.convert_element_type %392, %int6_434 : !torch.vtensor<[16],si64>, !torch.int -> !torch.vtensor<[16],f32> loc(#loc1127)
    %int32_435 = torch.constant.int 32 loc(#loc1128)
    %394 = torch.aten.div.Scalar %393, %int32_435 : !torch.vtensor<[16],f32>, !torch.int -> !torch.vtensor<[16],f32> loc(#loc1129)
    %float5.000000e05_436 = torch.constant.float 5.000000e+05 loc(#loc1130)
    %395 = torch.aten.pow.Scalar %float5.000000e05_436, %394 : !torch.float, !torch.vtensor<[16],f32> -> !torch.vtensor<[16],f32> loc(#loc1131)
    %396 = torch.aten.reciprocal %395 : !torch.vtensor<[16],f32> -> !torch.vtensor<[16],f32> loc(#loc1132)
    %float1.000000e00_437 = torch.constant.float 1.000000e+00 loc(#loc1133)
    %397 = torch.aten.mul.Scalar %396, %float1.000000e00_437 : !torch.vtensor<[16],f32>, !torch.float -> !torch.vtensor<[16],f32> loc(#loc1134)
    %none_438 = torch.constant.none loc(#loc1135)
    %398 = torch.aten.clone %18, %none_438 : !torch.vtensor<[],f32>, !torch.none -> !torch.vtensor<[],f32> loc(#loc1136)
    %int0_439 = torch.constant.int 0 loc(#loc1137)
    %399 = torch.aten.unsqueeze %397, %int0_439 : !torch.vtensor<[16],f32>, !torch.int -> !torch.vtensor<[1,16],f32> loc(#loc1138)
    %int1_440 = torch.constant.int 1 loc(#loc1139)
    %int0_441 = torch.constant.int 0 loc(#loc1140)
    %int9223372036854775807_442 = torch.constant.int 9223372036854775807 loc(#loc1141)
    %int1_443 = torch.constant.int 1 loc(#loc1142)
    %400 = torch.aten.slice.Tensor %399, %int1_440, %int0_441, %int9223372036854775807_442, %int1_443 : !torch.vtensor<[1,16],f32>, !torch.int, !torch.int, !torch.int, !torch.int -> !torch.vtensor<[1,16],f32> loc(#loc1143)
    %int2_444 = torch.constant.int 2 loc(#loc1144)
    %401 = torch.aten.unsqueeze %400, %int2_444 : !torch.vtensor<[1,16],f32>, !torch.int -> !torch.vtensor<[1,16,1],f32> loc(#loc1145)
    %int6_445 = torch.constant.int 6 loc(#loc1146)
    %402 = torch.prims.convert_element_type %401, %int6_445 : !torch.vtensor<[1,16,1],f32>, !torch.int -> !torch.vtensor<[1,16,1],f32> loc(#loc1147)
    %int1_446 = torch.constant.int 1 loc(#loc1148)
    %int-1_447 = torch.constant.int -1 loc(#loc1149)
    %int1_448 = torch.constant.int 1 loc(#loc1150)
    %403 = torch.prim.ListConstruct %int1_446, %int-1_447, %int1_448 : (!torch.int, !torch.int, !torch.int) -> !torch.list<int> loc(#loc1151)
    %false_449 = torch.constant.bool false loc(#loc1152)
    %404 = torch.aten.expand %402, %403, %false_449 : !torch.vtensor<[1,16,1],f32>, !torch.list<int>, !torch.bool -> !torch.vtensor<[1,16,1],f32> loc(#loc1153)
    %int0_450 = torch.constant.int 0 loc(#loc1154)
    %int0_451 = torch.constant.int 0 loc(#loc1155)
    %int9223372036854775807_452 = torch.constant.int 9223372036854775807 loc(#loc1156)
    %int1_453 = torch.constant.int 1 loc(#loc1157)
    %405 = torch.aten.slice.Tensor %391, %int0_450, %int0_451, %int9223372036854775807_452, %int1_453 : !torch.vtensor<[1,?],si64>, !torch.int, !torch.int, !torch.int, !torch.int -> !torch.vtensor<[1,?],si64> loc(#loc1158)
    torch.bind_symbolic_shape %405, [%41], affine_map<()[s0] -> (1, s0 * 16)> : !torch.vtensor<[1,?],si64> loc(#loc1159)
    %int1_454 = torch.constant.int 1 loc(#loc1160)
    %406 = torch.aten.unsqueeze %405, %int1_454 : !torch.vtensor<[1,?],si64>, !torch.int -> !torch.vtensor<[1,1,?],si64> loc(#loc1161)
    torch.bind_symbolic_shape %406, [%41], affine_map<()[s0] -> (1, 1, s0 * 16)> : !torch.vtensor<[1,1,?],si64> loc(#loc1162)
    %int2_455 = torch.constant.int 2 loc(#loc1163)
    %int0_456 = torch.constant.int 0 loc(#loc1164)
    %int9223372036854775807_457 = torch.constant.int 9223372036854775807 loc(#loc1165)
    %int1_458 = torch.constant.int 1 loc(#loc1166)
    %407 = torch.aten.slice.Tensor %406, %int2_455, %int0_456, %int9223372036854775807_457, %int1_458 : !torch.vtensor<[1,1,?],si64>, !torch.int, !torch.int, !torch.int, !torch.int -> !torch.vtensor<[1,1,?],si64> loc(#loc1167)
    torch.bind_symbolic_shape %407, [%41], affine_map<()[s0] -> (1, 1, s0 * 16)> : !torch.vtensor<[1,1,?],si64> loc(#loc1168)
    %int6_459 = torch.constant.int 6 loc(#loc1169)
    %408 = torch.prims.convert_element_type %407, %int6_459 : !torch.vtensor<[1,1,?],si64>, !torch.int -> !torch.vtensor<[1,1,?],f32> loc(#loc1170)
    torch.bind_symbolic_shape %408, [%41], affine_map<()[s0] -> (1, 1, s0 * 16)> : !torch.vtensor<[1,1,?],f32> loc(#loc1171)
    %409 = torch.aten.matmul %404, %408 : !torch.vtensor<[1,16,1],f32>, !torch.vtensor<[1,1,?],f32> -> !torch.vtensor<[1,16,?],f32> loc(#loc1172)
    torch.bind_symbolic_shape %409, [%41], affine_map<()[s0] -> (1, 16, s0 * 16)> : !torch.vtensor<[1,16,?],f32> loc(#loc1173)
    %int1_460 = torch.constant.int 1 loc(#loc1174)
    %int2_461 = torch.constant.int 2 loc(#loc1175)
    %410 = torch.aten.transpose.int %409, %int1_460, %int2_461 : !torch.vtensor<[1,16,?],f32>, !torch.int, !torch.int -> !torch.vtensor<[1,?,16],f32> loc(#loc1176)
    torch.bind_symbolic_shape %410, [%41], affine_map<()[s0] -> (1, s0 * 16, 16)> : !torch.vtensor<[1,?,16],f32> loc(#loc1177)
    %411 = torch.aten.cos %410 : !torch.vtensor<[1,?,16],f32> -> !torch.vtensor<[1,?,16],f32> loc(#loc1178)
    torch.bind_symbolic_shape %411, [%41], affine_map<()[s0] -> (1, s0 * 16, 16)> : !torch.vtensor<[1,?,16],f32> loc(#loc1179)
    %412 = torch.aten.mul.Tensor %411, %398 : !torch.vtensor<[1,?,16],f32>, !torch.vtensor<[],f32> -> !torch.vtensor<[1,?,16],f32> loc(#loc1180)
    torch.bind_symbolic_shape %412, [%41], affine_map<()[s0] -> (1, s0 * 16, 16)> : !torch.vtensor<[1,?,16],f32> loc(#loc1181)
    %int5_462 = torch.constant.int 5 loc(#loc1182)
    %413 = torch.prims.convert_element_type %412, %int5_462 : !torch.vtensor<[1,?,16],f32>, !torch.int -> !torch.vtensor<[1,?,16],f16> loc(#loc1183)
    torch.bind_symbolic_shape %413, [%41], affine_map<()[s0] -> (1, s0 * 16, 16)> : !torch.vtensor<[1,?,16],f16> loc(#loc1184)
    %414 = torch.aten.sin %410 : !torch.vtensor<[1,?,16],f32> -> !torch.vtensor<[1,?,16],f32> loc(#loc1185)
    torch.bind_symbolic_shape %414, [%41], affine_map<()[s0] -> (1, s0 * 16, 16)> : !torch.vtensor<[1,?,16],f32> loc(#loc1186)
    %415 = torch.aten.mul.Tensor %414, %398 : !torch.vtensor<[1,?,16],f32>, !torch.vtensor<[],f32> -> !torch.vtensor<[1,?,16],f32> loc(#loc1187)
    torch.bind_symbolic_shape %415, [%41], affine_map<()[s0] -> (1, s0 * 16, 16)> : !torch.vtensor<[1,?,16],f32> loc(#loc1188)
    %int5_463 = torch.constant.int 5 loc(#loc1189)
    %416 = torch.prims.convert_element_type %415, %int5_463 : !torch.vtensor<[1,?,16],f32>, !torch.int -> !torch.vtensor<[1,?,16],f16> loc(#loc1190)
    torch.bind_symbolic_shape %416, [%41], affine_map<()[s0] -> (1, s0 * 16, 16)> : !torch.vtensor<[1,?,16],f16> loc(#loc1191)
    %int2_464 = torch.constant.int 2 loc(#loc1192)
    %417 = torch.aten.unsqueeze %413, %int2_464 : !torch.vtensor<[1,?,16],f16>, !torch.int -> !torch.vtensor<[1,?,1,16],f16> loc(#loc1193)
    torch.bind_symbolic_shape %417, [%41], affine_map<()[s0] -> (1, s0 * 16, 1, 16)> : !torch.vtensor<[1,?,1,16],f16> loc(#loc1194)
    %int2_465 = torch.constant.int 2 loc(#loc1195)
    %418 = torch.aten.unsqueeze %416, %int2_465 : !torch.vtensor<[1,?,16],f16>, !torch.int -> !torch.vtensor<[1,?,1,16],f16> loc(#loc1196)
    torch.bind_symbolic_shape %418, [%41], affine_map<()[s0] -> (1, s0 * 16, 1, 16)> : !torch.vtensor<[1,?,1,16],f16> loc(#loc1197)
    %int5_466 = torch.constant.int 5 loc(#loc1198)
    %419 = torch.prims.convert_element_type %342, %int5_466 : !torch.vtensor<[4,?,4,32],f16>, !torch.int -> !torch.vtensor<[4,?,4,32],f16> loc(#loc1199)
    torch.bind_symbolic_shape %419, [%41], affine_map<()[s0] -> (4, s0 * 16, 4, 32)> : !torch.vtensor<[4,?,4,32],f16> loc(#loc1200)
    %int3_467 = torch.constant.int 3 loc(#loc1201)
    %int0_468 = torch.constant.int 0 loc(#loc1202)
    %int32_469 = torch.constant.int 32 loc(#loc1203)
    %int2_470 = torch.constant.int 2 loc(#loc1204)
    %420 = torch.aten.slice.Tensor %419, %int3_467, %int0_468, %int32_469, %int2_470 : !torch.vtensor<[4,?,4,32],f16>, !torch.int, !torch.int, !torch.int, !torch.int -> !torch.vtensor<[4,?,4,16],f16> loc(#loc1205)
    torch.bind_symbolic_shape %420, [%41], affine_map<()[s0] -> (4, s0 * 16, 4, 16)> : !torch.vtensor<[4,?,4,16],f16> loc(#loc1206)
    %int3_471 = torch.constant.int 3 loc(#loc1207)
    %int1_472 = torch.constant.int 1 loc(#loc1208)
    %int32_473 = torch.constant.int 32 loc(#loc1209)
    %int2_474 = torch.constant.int 2 loc(#loc1210)
    %421 = torch.aten.slice.Tensor %419, %int3_471, %int1_472, %int32_473, %int2_474 : !torch.vtensor<[4,?,4,32],f16>, !torch.int, !torch.int, !torch.int, !torch.int -> !torch.vtensor<[4,?,4,16],f16> loc(#loc1211)
    torch.bind_symbolic_shape %421, [%41], affine_map<()[s0] -> (4, s0 * 16, 4, 16)> : !torch.vtensor<[4,?,4,16],f16> loc(#loc1212)
    %422 = torch.aten.mul.Tensor %420, %417 : !torch.vtensor<[4,?,4,16],f16>, !torch.vtensor<[1,?,1,16],f16> -> !torch.vtensor<[4,?,4,16],f16> loc(#loc1213)
    torch.bind_symbolic_shape %422, [%41], affine_map<()[s0] -> (4, s0 * 16, 4, 16)> : !torch.vtensor<[4,?,4,16],f16> loc(#loc1214)
    %423 = torch.aten.mul.Tensor %421, %418 : !torch.vtensor<[4,?,4,16],f16>, !torch.vtensor<[1,?,1,16],f16> -> !torch.vtensor<[4,?,4,16],f16> loc(#loc1215)
    torch.bind_symbolic_shape %423, [%41], affine_map<()[s0] -> (4, s0 * 16, 4, 16)> : !torch.vtensor<[4,?,4,16],f16> loc(#loc1216)
    %int1_475 = torch.constant.int 1 loc(#loc1217)
    %424 = torch.aten.sub.Tensor %422, %423, %int1_475 : !torch.vtensor<[4,?,4,16],f16>, !torch.vtensor<[4,?,4,16],f16>, !torch.int -> !torch.vtensor<[4,?,4,16],f16> loc(#loc1218)
    torch.bind_symbolic_shape %424, [%41], affine_map<()[s0] -> (4, s0 * 16, 4, 16)> : !torch.vtensor<[4,?,4,16],f16> loc(#loc1219)
    %425 = torch.aten.mul.Tensor %421, %417 : !torch.vtensor<[4,?,4,16],f16>, !torch.vtensor<[1,?,1,16],f16> -> !torch.vtensor<[4,?,4,16],f16> loc(#loc1220)
    torch.bind_symbolic_shape %425, [%41], affine_map<()[s0] -> (4, s0 * 16, 4, 16)> : !torch.vtensor<[4,?,4,16],f16> loc(#loc1221)
    %426 = torch.aten.mul.Tensor %420, %418 : !torch.vtensor<[4,?,4,16],f16>, !torch.vtensor<[1,?,1,16],f16> -> !torch.vtensor<[4,?,4,16],f16> loc(#loc1222)
    torch.bind_symbolic_shape %426, [%41], affine_map<()[s0] -> (4, s0 * 16, 4, 16)> : !torch.vtensor<[4,?,4,16],f16> loc(#loc1223)
    %int1_476 = torch.constant.int 1 loc(#loc1224)
    %427 = torch.aten.add.Tensor %425, %426, %int1_476 : !torch.vtensor<[4,?,4,16],f16>, !torch.vtensor<[4,?,4,16],f16>, !torch.int -> !torch.vtensor<[4,?,4,16],f16> loc(#loc1225)
    torch.bind_symbolic_shape %427, [%41], affine_map<()[s0] -> (4, s0 * 16, 4, 16)> : !torch.vtensor<[4,?,4,16],f16> loc(#loc1226)
    %428 = torch_c.to_builtin_tensor %424 : !torch.vtensor<[4,?,4,16],f16> -> tensor<4x?x4x16xf16> loc(#loc1227)
    %cast_477 = tensor.cast %428 : tensor<4x?x4x16xf16> to tensor<?x?x?x?xf16> loc(#loc1228)
    %429 = torch_c.to_builtin_tensor %427 : !torch.vtensor<[4,?,4,16],f16> -> tensor<4x?x4x16xf16> loc(#loc1229)
    %cast_478 = tensor.cast %429 : tensor<4x?x4x16xf16> to tensor<?x?x?x?xf16> loc(#loc1230)
    %430 = util.call @rope_select_concat_BS_SL_HEADS_HALFDIM_f16_BS_SL_HEADS_HALFDIM_f16_BS_SL_HEADS_TWO_2_HALFDIM_f16(%cast_477, %cast_478) : (tensor<?x?x?x?xf16>, tensor<?x?x?x?xf16>) -> tensor<?x?x?x2x?xf16> loc(#loc1231)
    %cast_479 = tensor.cast %430 : tensor<?x?x?x2x?xf16> to tensor<4x?x4x2x16xf16> loc(#loc1232)
    %431 = torch_c.from_builtin_tensor %cast_479 : tensor<4x?x4x2x16xf16> -> !torch.vtensor<[4,?,4,2,16],f16> loc(#loc1233)
    torch.bind_symbolic_shape %431, [%41], affine_map<()[s0] -> (4, s0 * 16, 4, 2, 16)> : !torch.vtensor<[4,?,4,2,16],f16> loc(#loc1234)
    %int4_480 = torch.constant.int 4 loc(#loc1235)
    %int4_481 = torch.constant.int 4 loc(#loc1236)
    %int32_482 = torch.constant.int 32 loc(#loc1237)
    %432 = torch.prim.ListConstruct %int4_480, %47, %int4_481, %int32_482 : (!torch.int, !torch.int, !torch.int, !torch.int) -> !torch.list<int> loc(#loc1238)
    %433 = torch.aten.view %431, %432 : !torch.vtensor<[4,?,4,2,16],f16>, !torch.list<int> -> !torch.vtensor<[4,?,4,32],f16> loc(#loc1239)
    torch.bind_symbolic_shape %433, [%41], affine_map<()[s0] -> (4, s0 * 16, 4, 32)> : !torch.vtensor<[4,?,4,32],f16> loc(#loc1240)
    %int5_483 = torch.constant.int 5 loc(#loc1241)
    %434 = torch.prims.convert_element_type %433, %int5_483 : !torch.vtensor<[4,?,4,32],f16>, !torch.int -> !torch.vtensor<[4,?,4,32],f16> loc(#loc1242)
    torch.bind_symbolic_shape %434, [%41], affine_map<()[s0] -> (4, s0 * 16, 4, 32)> : !torch.vtensor<[4,?,4,32],f16> loc(#loc1243)
    %int3_484 = torch.constant.int 3 loc(#loc1244)
    %435 = torch.aten.mul.Scalar %arg2, %int3_484 : !torch.vtensor<[4,?],si64>, !torch.int -> !torch.vtensor<[4,?],si64> loc(#loc1245)
    torch.bind_symbolic_shape %435, [%41], affine_map<()[s0] -> (4, s0)> : !torch.vtensor<[4,?],si64> loc(#loc1246)
    %int1_485 = torch.constant.int 1 loc(#loc1247)
    %int1_486 = torch.constant.int 1 loc(#loc1248)
    %436 = torch.aten.add.Scalar %435, %int1_485, %int1_486 : !torch.vtensor<[4,?],si64>, !torch.int, !torch.int -> !torch.vtensor<[4,?],si64> loc(#loc1249)
    torch.bind_symbolic_shape %436, [%41], affine_map<()[s0] -> (4, s0)> : !torch.vtensor<[4,?],si64> loc(#loc1250)
    %int2_487 = torch.constant.int 2 loc(#loc1251)
    %437 = torch.aten.mul.Scalar %436, %int2_487 : !torch.vtensor<[4,?],si64>, !torch.int -> !torch.vtensor<[4,?],si64> loc(#loc1252)
    torch.bind_symbolic_shape %437, [%41], affine_map<()[s0] -> (4, s0)> : !torch.vtensor<[4,?],si64> loc(#loc1253)
    %int0_488 = torch.constant.int 0 loc(#loc1254)
    %int1_489 = torch.constant.int 1 loc(#loc1255)
    %438 = torch.aten.add.Scalar %437, %int0_488, %int1_489 : !torch.vtensor<[4,?],si64>, !torch.int, !torch.int -> !torch.vtensor<[4,?],si64> loc(#loc1256)
    torch.bind_symbolic_shape %438, [%41], affine_map<()[s0] -> (4, s0)> : !torch.vtensor<[4,?],si64> loc(#loc1257)
    %439 = torch.prim.ListConstruct %186 : (!torch.int) -> !torch.list<int> loc(#loc1258)
    %440 = torch.aten.view %438, %439 : !torch.vtensor<[4,?],si64>, !torch.list<int> -> !torch.vtensor<[?],si64> loc(#loc1259)
    torch.bind_symbolic_shape %440, [%41], affine_map<()[s0] -> (s0 * 4)> : !torch.vtensor<[?],si64> loc(#loc1260)
    %int4_490 = torch.constant.int 4 loc(#loc1261)
    %int16_491 = torch.constant.int 16 loc(#loc1262)
    %int4_492 = torch.constant.int 4 loc(#loc1263)
    %int32_493 = torch.constant.int 32 loc(#loc1264)
    %441 = torch.prim.ListConstruct %int4_490, %43, %int16_491, %int4_492, %int32_493 : (!torch.int, !torch.int, !torch.int, !torch.int, !torch.int) -> !torch.list<int> loc(#loc1265)
    %442 = torch.aten.view %434, %441 : !torch.vtensor<[4,?,4,32],f16>, !torch.list<int> -> !torch.vtensor<[4,?,16,4,32],f16> loc(#loc1266)
    torch.bind_symbolic_shape %442, [%41], affine_map<()[s0] -> (4, s0, 16, 4, 32)> : !torch.vtensor<[4,?,16,4,32],f16> loc(#loc1267)
    %int16_494 = torch.constant.int 16 loc(#loc1268)
    %int4_495 = torch.constant.int 4 loc(#loc1269)
    %int32_496 = torch.constant.int 32 loc(#loc1270)
    %443 = torch.prim.ListConstruct %186, %int16_494, %int4_495, %int32_496 : (!torch.int, !torch.int, !torch.int, !torch.int) -> !torch.list<int> loc(#loc1271)
    %444 = torch.aten.view %442, %443 : !torch.vtensor<[4,?,16,4,32],f16>, !torch.list<int> -> !torch.vtensor<[?,16,4,32],f16> loc(#loc1272)
    torch.bind_symbolic_shape %444, [%41], affine_map<()[s0] -> (s0 * 4, 16, 4, 32)> : !torch.vtensor<[?,16,4,32],f16> loc(#loc1273)
    %int1_497 = torch.constant.int 1 loc(#loc1274)
    %int2_498 = torch.constant.int 2 loc(#loc1275)
    %445 = torch.aten.transpose.int %444, %int1_497, %int2_498 : !torch.vtensor<[?,16,4,32],f16>, !torch.int, !torch.int -> !torch.vtensor<[?,4,16,32],f16> loc(#loc1276)
    torch.bind_symbolic_shape %445, [%41], affine_map<()[s0] -> (s0 * 4, 4, 16, 32)> : !torch.vtensor<[?,4,16,32],f16> loc(#loc1277)
    %int5_499 = torch.constant.int 5 loc(#loc1278)
    %446 = torch.prims.convert_element_type %445, %int5_499 : !torch.vtensor<[?,4,16,32],f16>, !torch.int -> !torch.vtensor<[?,4,16,32],f16> loc(#loc1279)
    torch.bind_symbolic_shape %446, [%41], affine_map<()[s0] -> (s0 * 4, 4, 16, 32)> : !torch.vtensor<[?,4,16,32],f16> loc(#loc1280)
    %int3_500 = torch.constant.int 3 loc(#loc1281)
    %int2_501 = torch.constant.int 2 loc(#loc1282)
    %int4_502 = torch.constant.int 4 loc(#loc1283)
    %int16_503 = torch.constant.int 16 loc(#loc1284)
    %int32_504 = torch.constant.int 32 loc(#loc1285)
    %447 = torch.prim.ListConstruct %44, %int3_500, %int2_501, %int4_502, %int16_503, %int32_504 : (!torch.int, !torch.int, !torch.int, !torch.int, !torch.int, !torch.int) -> !torch.list<int> loc(#loc1286)
    %448 = torch.aten.view %222, %447 : !torch.vtensor<[?,12288],f16>, !torch.list<int> -> !torch.vtensor<[?,3,2,4,16,32],f16> loc(#loc1287)
    torch.bind_symbolic_shape %448, [%42], affine_map<()[s0] -> (s0, 3, 2, 4, 16, 32)> : !torch.vtensor<[?,3,2,4,16,32],f16> loc(#loc1288)
    %int4_505 = torch.constant.int 4 loc(#loc1289)
    %int16_506 = torch.constant.int 16 loc(#loc1290)
    %int32_507 = torch.constant.int 32 loc(#loc1291)
    %449 = torch.prim.ListConstruct %179, %int4_505, %int16_506, %int32_507 : (!torch.int, !torch.int, !torch.int, !torch.int) -> !torch.list<int> loc(#loc1292)
    %450 = torch.aten.view %448, %449 : !torch.vtensor<[?,3,2,4,16,32],f16>, !torch.list<int> -> !torch.vtensor<[?,4,16,32],f16> loc(#loc1293)
    torch.bind_symbolic_shape %450, [%42], affine_map<()[s0] -> (s0 * 6, 4, 16, 32)> : !torch.vtensor<[?,4,16,32],f16> loc(#loc1294)
    %451 = torch.prim.ListConstruct %440 : (!torch.vtensor<[?],si64>) -> !torch.list<optional<vtensor>> loc(#loc1295)
    %false_508 = torch.constant.bool false loc(#loc1296)
    %452 = torch.aten.index_put %450, %451, %446, %false_508 : !torch.vtensor<[?,4,16,32],f16>, !torch.list<optional<vtensor>>, !torch.vtensor<[?,4,16,32],f16>, !torch.bool -> !torch.vtensor<[?,4,16,32],f16> loc(#loc1297)
    torch.bind_symbolic_shape %452, [%42], affine_map<()[s0] -> (s0 * 6, 4, 16, 32)> : !torch.vtensor<[?,4,16,32],f16> loc(#loc1298)
    %int3_509 = torch.constant.int 3 loc(#loc1299)
    %int2_510 = torch.constant.int 2 loc(#loc1300)
    %int4_511 = torch.constant.int 4 loc(#loc1301)
    %int16_512 = torch.constant.int 16 loc(#loc1302)
    %int32_513 = torch.constant.int 32 loc(#loc1303)
    %453 = torch.prim.ListConstruct %44, %int3_509, %int2_510, %int4_511, %int16_512, %int32_513 : (!torch.int, !torch.int, !torch.int, !torch.int, !torch.int, !torch.int) -> !torch.list<int> loc(#loc1304)
    %454 = torch.aten.view %452, %453 : !torch.vtensor<[?,4,16,32],f16>, !torch.list<int> -> !torch.vtensor<[?,3,2,4,16,32],f16> loc(#loc1305)
    torch.bind_symbolic_shape %454, [%42], affine_map<()[s0] -> (s0, 3, 2, 4, 16, 32)> : !torch.vtensor<[?,3,2,4,16,32],f16> loc(#loc1306)
    %int12288_514 = torch.constant.int 12288 loc(#loc1307)
    %455 = torch.prim.ListConstruct %44, %int12288_514 : (!torch.int, !torch.int) -> !torch.list<int> loc(#loc1308)
    %456 = torch.aten.view %454, %455 : !torch.vtensor<[?,3,2,4,16,32],f16>, !torch.list<int> -> !torch.vtensor<[?,12288],f16> loc(#loc1309)
    torch.bind_symbolic_shape %456, [%42], affine_map<()[s0] -> (s0, 12288)> : !torch.vtensor<[?,12288],f16> loc(#loc1310)
    %int3_515 = torch.constant.int 3 loc(#loc1311)
    %int2_516 = torch.constant.int 2 loc(#loc1312)
    %int4_517 = torch.constant.int 4 loc(#loc1313)
    %int16_518 = torch.constant.int 16 loc(#loc1314)
    %int32_519 = torch.constant.int 32 loc(#loc1315)
    %457 = torch.prim.ListConstruct %44, %int3_515, %int2_516, %int4_517, %int16_518, %int32_519 : (!torch.int, !torch.int, !torch.int, !torch.int, !torch.int, !torch.int) -> !torch.list<int> loc(#loc1316)
    %458 = torch.aten.view %456, %457 : !torch.vtensor<[?,12288],f16>, !torch.list<int> -> !torch.vtensor<[?,3,2,4,16,32],f16> loc(#loc1317)
    torch.bind_symbolic_shape %458, [%42], affine_map<()[s0] -> (s0, 3, 2, 4, 16, 32)> : !torch.vtensor<[?,3,2,4,16,32],f16> loc(#loc1318)
    %int4_520 = torch.constant.int 4 loc(#loc1319)
    %int16_521 = torch.constant.int 16 loc(#loc1320)
    %int32_522 = torch.constant.int 32 loc(#loc1321)
    %459 = torch.prim.ListConstruct %179, %int4_520, %int16_521, %int32_522 : (!torch.int, !torch.int, !torch.int, !torch.int) -> !torch.list<int> loc(#loc1322)
    %460 = torch.aten.view %458, %459 : !torch.vtensor<[?,3,2,4,16,32],f16>, !torch.list<int> -> !torch.vtensor<[?,4,16,32],f16> loc(#loc1323)
    torch.bind_symbolic_shape %460, [%42], affine_map<()[s0] -> (s0 * 6, 4, 16, 32)> : !torch.vtensor<[?,4,16,32],f16> loc(#loc1324)
    %int3_523 = torch.constant.int 3 loc(#loc1325)
    %461 = torch.aten.mul.Scalar %arg2, %int3_523 : !torch.vtensor<[4,?],si64>, !torch.int -> !torch.vtensor<[4,?],si64> loc(#loc1326)
    torch.bind_symbolic_shape %461, [%41], affine_map<()[s0] -> (4, s0)> : !torch.vtensor<[4,?],si64> loc(#loc1327)
    %int1_524 = torch.constant.int 1 loc(#loc1328)
    %int1_525 = torch.constant.int 1 loc(#loc1329)
    %462 = torch.aten.add.Scalar %461, %int1_524, %int1_525 : !torch.vtensor<[4,?],si64>, !torch.int, !torch.int -> !torch.vtensor<[4,?],si64> loc(#loc1330)
    torch.bind_symbolic_shape %462, [%41], affine_map<()[s0] -> (4, s0)> : !torch.vtensor<[4,?],si64> loc(#loc1331)
    %int2_526 = torch.constant.int 2 loc(#loc1332)
    %463 = torch.aten.mul.Scalar %462, %int2_526 : !torch.vtensor<[4,?],si64>, !torch.int -> !torch.vtensor<[4,?],si64> loc(#loc1333)
    torch.bind_symbolic_shape %463, [%41], affine_map<()[s0] -> (4, s0)> : !torch.vtensor<[4,?],si64> loc(#loc1334)
    %int1_527 = torch.constant.int 1 loc(#loc1335)
    %int1_528 = torch.constant.int 1 loc(#loc1336)
    %464 = torch.aten.add.Scalar %463, %int1_527, %int1_528 : !torch.vtensor<[4,?],si64>, !torch.int, !torch.int -> !torch.vtensor<[4,?],si64> loc(#loc1337)
    torch.bind_symbolic_shape %464, [%41], affine_map<()[s0] -> (4, s0)> : !torch.vtensor<[4,?],si64> loc(#loc1338)
    %465 = torch.prim.ListConstruct %186 : (!torch.int) -> !torch.list<int> loc(#loc1339)
    %466 = torch.aten.view %464, %465 : !torch.vtensor<[4,?],si64>, !torch.list<int> -> !torch.vtensor<[?],si64> loc(#loc1340)
    torch.bind_symbolic_shape %466, [%41], affine_map<()[s0] -> (s0 * 4)> : !torch.vtensor<[?],si64> loc(#loc1341)
    %int4_529 = torch.constant.int 4 loc(#loc1342)
    %int16_530 = torch.constant.int 16 loc(#loc1343)
    %int4_531 = torch.constant.int 4 loc(#loc1344)
    %int32_532 = torch.constant.int 32 loc(#loc1345)
    %467 = torch.prim.ListConstruct %int4_529, %43, %int16_530, %int4_531, %int32_532 : (!torch.int, !torch.int, !torch.int, !torch.int, !torch.int) -> !torch.list<int> loc(#loc1346)
    %468 = torch.aten.view %344, %467 : !torch.vtensor<[4,?,4,32],f16>, !torch.list<int> -> !torch.vtensor<[4,?,16,4,32],f16> loc(#loc1347)
    torch.bind_symbolic_shape %468, [%41], affine_map<()[s0] -> (4, s0, 16, 4, 32)> : !torch.vtensor<[4,?,16,4,32],f16> loc(#loc1348)
    %int16_533 = torch.constant.int 16 loc(#loc1349)
    %int4_534 = torch.constant.int 4 loc(#loc1350)
    %int32_535 = torch.constant.int 32 loc(#loc1351)
    %469 = torch.prim.ListConstruct %186, %int16_533, %int4_534, %int32_535 : (!torch.int, !torch.int, !torch.int, !torch.int) -> !torch.list<int> loc(#loc1352)
    %470 = torch.aten.view %468, %469 : !torch.vtensor<[4,?,16,4,32],f16>, !torch.list<int> -> !torch.vtensor<[?,16,4,32],f16> loc(#loc1353)
    torch.bind_symbolic_shape %470, [%41], affine_map<()[s0] -> (s0 * 4, 16, 4, 32)> : !torch.vtensor<[?,16,4,32],f16> loc(#loc1354)
    %int1_536 = torch.constant.int 1 loc(#loc1355)
    %int2_537 = torch.constant.int 2 loc(#loc1356)
    %471 = torch.aten.transpose.int %470, %int1_536, %int2_537 : !torch.vtensor<[?,16,4,32],f16>, !torch.int, !torch.int -> !torch.vtensor<[?,4,16,32],f16> loc(#loc1357)
    torch.bind_symbolic_shape %471, [%41], affine_map<()[s0] -> (s0 * 4, 4, 16, 32)> : !torch.vtensor<[?,4,16,32],f16> loc(#loc1358)
    %int5_538 = torch.constant.int 5 loc(#loc1359)
    %472 = torch.prims.convert_element_type %471, %int5_538 : !torch.vtensor<[?,4,16,32],f16>, !torch.int -> !torch.vtensor<[?,4,16,32],f16> loc(#loc1360)
    torch.bind_symbolic_shape %472, [%41], affine_map<()[s0] -> (s0 * 4, 4, 16, 32)> : !torch.vtensor<[?,4,16,32],f16> loc(#loc1361)
    %473 = torch.prim.ListConstruct %466 : (!torch.vtensor<[?],si64>) -> !torch.list<optional<vtensor>> loc(#loc1362)
    %false_539 = torch.constant.bool false loc(#loc1363)
    %474 = torch.aten.index_put %460, %473, %472, %false_539 : !torch.vtensor<[?,4,16,32],f16>, !torch.list<optional<vtensor>>, !torch.vtensor<[?,4,16,32],f16>, !torch.bool -> !torch.vtensor<[?,4,16,32],f16> loc(#loc1364)
    torch.bind_symbolic_shape %474, [%42], affine_map<()[s0] -> (s0 * 6, 4, 16, 32)> : !torch.vtensor<[?,4,16,32],f16> loc(#loc1365)
    %int3_540 = torch.constant.int 3 loc(#loc1366)
    %int2_541 = torch.constant.int 2 loc(#loc1367)
    %int4_542 = torch.constant.int 4 loc(#loc1368)
    %int16_543 = torch.constant.int 16 loc(#loc1369)
    %int32_544 = torch.constant.int 32 loc(#loc1370)
    %475 = torch.prim.ListConstruct %44, %int3_540, %int2_541, %int4_542, %int16_543, %int32_544 : (!torch.int, !torch.int, !torch.int, !torch.int, !torch.int, !torch.int) -> !torch.list<int> loc(#loc1371)
    %476 = torch.aten.view %474, %475 : !torch.vtensor<[?,4,16,32],f16>, !torch.list<int> -> !torch.vtensor<[?,3,2,4,16,32],f16> loc(#loc1372)
    torch.bind_symbolic_shape %476, [%42], affine_map<()[s0] -> (s0, 3, 2, 4, 16, 32)> : !torch.vtensor<[?,3,2,4,16,32],f16> loc(#loc1373)
    %int12288_545 = torch.constant.int 12288 loc(#loc1374)
    %477 = torch.prim.ListConstruct %44, %int12288_545 : (!torch.int, !torch.int) -> !torch.list<int> loc(#loc1375)
    %478 = torch.aten.view %476, %477 : !torch.vtensor<[?,3,2,4,16,32],f16>, !torch.list<int> -> !torch.vtensor<[?,12288],f16> loc(#loc1376)
    torch.bind_symbolic_shape %478, [%42], affine_map<()[s0] -> (s0, 12288)> : !torch.vtensor<[?,12288],f16> loc(#loc1377)
    %int0_546 = torch.constant.int 0 loc(#loc1378)
    %int1_547 = torch.constant.int 1 loc(#loc1379)
    %none_548 = torch.constant.none loc(#loc1380)
    %none_549 = torch.constant.none loc(#loc1381)
    %cpu_550 = torch.constant.device "cpu" loc(#loc1382)
    %false_551 = torch.constant.bool false loc(#loc1383)
    %479 = torch.aten.arange.start_step %int0_546, %47, %int1_547, %none_548, %none_549, %cpu_550, %false_551 : !torch.int, !torch.int, !torch.int, !torch.none, !torch.none, !torch.Device, !torch.bool -> !torch.vtensor<[?],si64> loc(#loc1384)
    torch.bind_symbolic_shape %479, [%41], affine_map<()[s0] -> (s0 * 16)> : !torch.vtensor<[?],si64> loc(#loc1385)
    %int-1_552 = torch.constant.int -1 loc(#loc1386)
    %480 = torch.aten.unsqueeze %arg1, %int-1_552 : !torch.vtensor<[4],si64>, !torch.int -> !torch.vtensor<[4,1],si64> loc(#loc1387)
    %481 = torch.aten.ge.Tensor %479, %480 : !torch.vtensor<[?],si64>, !torch.vtensor<[4,1],si64> -> !torch.vtensor<[4,?],i1> loc(#loc1388)
    torch.bind_symbolic_shape %481, [%41], affine_map<()[s0] -> (4, s0 * 16)> : !torch.vtensor<[4,?],i1> loc(#loc1389)
    %none_553 = torch.constant.none loc(#loc1390)
    %none_554 = torch.constant.none loc(#loc1391)
    %cpu_555 = torch.constant.device "cpu" loc(#loc1392)
    %false_556 = torch.constant.bool false loc(#loc1393)
    %482 = torch.aten.arange %47, %none_553, %none_554, %cpu_555, %false_556 : !torch.int, !torch.none, !torch.none, !torch.Device, !torch.bool -> !torch.vtensor<[?],si64> loc(#loc1394)
    torch.bind_symbolic_shape %482, [%41], affine_map<()[s0] -> (s0 * 16)> : !torch.vtensor<[?],si64> loc(#loc1395)
    %int0_557 = torch.constant.int 0 loc(#loc1396)
    %483 = torch.aten.unsqueeze %482, %int0_557 : !torch.vtensor<[?],si64>, !torch.int -> !torch.vtensor<[1,?],si64> loc(#loc1397)
    torch.bind_symbolic_shape %483, [%41], affine_map<()[s0] -> (1, s0 * 16)> : !torch.vtensor<[1,?],si64> loc(#loc1398)
    %int1_558 = torch.constant.int 1 loc(#loc1399)
    %484 = torch.aten.unsqueeze %483, %int1_558 : !torch.vtensor<[1,?],si64>, !torch.int -> !torch.vtensor<[1,1,?],si64> loc(#loc1400)
    torch.bind_symbolic_shape %484, [%41], affine_map<()[s0] -> (1, 1, s0 * 16)> : !torch.vtensor<[1,1,?],si64> loc(#loc1401)
    %int2_559 = torch.constant.int 2 loc(#loc1402)
    %485 = torch.aten.unsqueeze %484, %int2_559 : !torch.vtensor<[1,1,?],si64>, !torch.int -> !torch.vtensor<[1,1,1,?],si64> loc(#loc1403)
    torch.bind_symbolic_shape %485, [%41], affine_map<()[s0] -> (1, 1, 1, s0 * 16)> : !torch.vtensor<[1,1,1,?],si64> loc(#loc1404)
    %int3_560 = torch.constant.int 3 loc(#loc1405)
    %int0_561 = torch.constant.int 0 loc(#loc1406)
    %int9223372036854775807_562 = torch.constant.int 9223372036854775807 loc(#loc1407)
    %int1_563 = torch.constant.int 1 loc(#loc1408)
    %486 = torch.aten.slice.Tensor %485, %int3_560, %int0_561, %int9223372036854775807_562, %int1_563 : !torch.vtensor<[1,1,1,?],si64>, !torch.int, !torch.int, !torch.int, !torch.int -> !torch.vtensor<[1,1,1,?],si64> loc(#loc1409)
    torch.bind_symbolic_shape %486, [%41], affine_map<()[s0] -> (1, 1, 1, s0 * 16)> : !torch.vtensor<[1,1,1,?],si64> loc(#loc1410)
    %none_564 = torch.constant.none loc(#loc1411)
    %none_565 = torch.constant.none loc(#loc1412)
    %cpu_566 = torch.constant.device "cpu" loc(#loc1413)
    %false_567 = torch.constant.bool false loc(#loc1414)
    %487 = torch.aten.arange %47, %none_564, %none_565, %cpu_566, %false_567 : !torch.int, !torch.none, !torch.none, !torch.Device, !torch.bool -> !torch.vtensor<[?],si64> loc(#loc1415)
    torch.bind_symbolic_shape %487, [%41], affine_map<()[s0] -> (s0 * 16)> : !torch.vtensor<[?],si64> loc(#loc1416)
    %int0_568 = torch.constant.int 0 loc(#loc1417)
    %488 = torch.aten.unsqueeze %487, %int0_568 : !torch.vtensor<[?],si64>, !torch.int -> !torch.vtensor<[1,?],si64> loc(#loc1418)
    torch.bind_symbolic_shape %488, [%41], affine_map<()[s0] -> (1, s0 * 16)> : !torch.vtensor<[1,?],si64> loc(#loc1419)
    %int1_569 = torch.constant.int 1 loc(#loc1420)
    %489 = torch.aten.unsqueeze %488, %int1_569 : !torch.vtensor<[1,?],si64>, !torch.int -> !torch.vtensor<[1,1,?],si64> loc(#loc1421)
    torch.bind_symbolic_shape %489, [%41], affine_map<()[s0] -> (1, 1, s0 * 16)> : !torch.vtensor<[1,1,?],si64> loc(#loc1422)
    %int2_570 = torch.constant.int 2 loc(#loc1423)
    %int0_571 = torch.constant.int 0 loc(#loc1424)
    %int9223372036854775807_572 = torch.constant.int 9223372036854775807 loc(#loc1425)
    %int1_573 = torch.constant.int 1 loc(#loc1426)
    %490 = torch.aten.slice.Tensor %489, %int2_570, %int0_571, %int9223372036854775807_572, %int1_573 : !torch.vtensor<[1,1,?],si64>, !torch.int, !torch.int, !torch.int, !torch.int -> !torch.vtensor<[1,1,?],si64> loc(#loc1427)
    torch.bind_symbolic_shape %490, [%41], affine_map<()[s0] -> (1, 1, s0 * 16)> : !torch.vtensor<[1,1,?],si64> loc(#loc1428)
    %int3_574 = torch.constant.int 3 loc(#loc1429)
    %491 = torch.aten.unsqueeze %490, %int3_574 : !torch.vtensor<[1,1,?],si64>, !torch.int -> !torch.vtensor<[1,1,?,1],si64> loc(#loc1430)
    torch.bind_symbolic_shape %491, [%41], affine_map<()[s0] -> (1, 1, s0 * 16, 1)> : !torch.vtensor<[1,1,?,1],si64> loc(#loc1431)
    %492 = torch.aten.gt.Tensor %486, %491 : !torch.vtensor<[1,1,1,?],si64>, !torch.vtensor<[1,1,?,1],si64> -> !torch.vtensor<[1,1,?,?],i1> loc(#loc1432)
    torch.bind_symbolic_shape %492, [%41], affine_map<()[s0] -> (1, 1, s0 * 16, s0 * 16)> : !torch.vtensor<[1,1,?,?],i1> loc(#loc1433)
…
#loc4241 = loc("<stdin>":4236:17)
#loc4242 = loc("<stdin>":4237:18)
#loc4243 = loc("<stdin>":4238:12)
#loc4244 = loc("<stdin>":4239:12)
#loc4245 = loc("<stdin>":4240:17)
#loc4246 = loc("<stdin>":4241:12)
#loc4247 = loc("<stdin>":4242:18)
#loc4248 = loc("<stdin>":4243:12)
#loc4249 = loc("<stdin>":4244:17)
#loc4250 = loc("<stdin>":4245:12)
#loc4251 = loc("<stdin>":4246:17)
#loc4252 = loc("<stdin>":4247:18)
#loc4253 = loc("<stdin>":4248:12)
#loc4254 = loc("<stdin>":4249:18)
#loc4255 = loc("<stdin>":4250:17)
#loc4256 = loc("<stdin>":4251:17)
#loc4257 = loc("<stdin>":4252:12)
#loc4258 = loc("<stdin>":4253:12)
#loc4259 = loc("<stdin>":4254:18)
#loc4260 = loc("<stdin>":4255:12)
#loc4261 = loc("<stdin>":4256:18)
#loc4262 = loc("<stdin>":4257:17)
#loc4263 = loc("<stdin>":4258:17)
#loc4264 = loc("<stdin>":4259:12)
#loc4265 = loc("<stdin>":4260:12)
#loc4266 = loc("<stdin>":4261:17)
#loc4267 = loc("<stdin>":4262:17)
#loc4268 = loc("<stdin>":4263:17)
#loc4269 = loc("<stdin>":4264:16)
#loc4270 = loc("<stdin>":4265:18)
#loc4271 = loc("<stdin>":4266:12)
#loc4272 = loc("<stdin>":4267:17)
#loc4273 = loc("<stdin>":4268:17)
#loc4274 = loc("<stdin>":4269:17)
#loc4275 = loc("<stdin>":4270:12)
#loc4276 = loc("<stdin>":4271:12)
#loc4277 = loc("<stdin>":4272:17)
#loc4278 = loc("<stdin>":4273:12)
#loc4279 = loc("<stdin>":4274:17)
#loc4280 = loc("<stdin>":4275:17)
#loc4281 = loc("<stdin>":4276:17)
#loc4282 = loc("<stdin>":4277:12)
#loc4283 = loc("<stdin>":4278:12)
#loc4284 = loc("<stdin>":4279:17)
#loc4285 = loc("<stdin>":4280:12)
#loc4286 = loc("<stdin>":4281:17)
#loc4287 = loc("<stdin>":4282:17)
#loc4288 = loc("<stdin>":4283:12)
#loc4289 = loc("<stdin>":4284:17)
#loc4290 = loc("<stdin>":4285:12)
#loc4291 = loc("<stdin>":4286:17)
#loc4292 = loc("<stdin>":4287:12)
#loc4293 = loc("<stdin>":4288:17)
#loc4294 = loc("<stdin>":4289:12)
#loc4295 = loc("<stdin>":4290:17)
#loc4296 = loc("<stdin>":4291:12)
#loc4297 = loc("<stdin>":4292:18)
#loc4298 = loc("<stdin>":4293:12)
#loc4299 = loc("<stdin>":4294:17)
#loc4300 = loc("<stdin>":4295:12)
#loc4301 = loc("<stdin>":4296:17)
#loc4302 = loc("<stdin>":4297:12)
#loc4303 = loc("<stdin>":4298:17)
#loc4304 = loc("<stdin>":4299:17)
#loc4305 = loc("<stdin>":4300:17)
#loc4306 = loc("<stdin>":4301:18)
#loc4307 = loc("<stdin>":4302:18)
#loc4308 = loc("<stdin>":4303:12)
#loc4309 = loc("<stdin>":4304:12)
#loc4310 = loc("<stdin>":4305:5)
#loc4311 = loc("<stdin>":4306:18)
#loc4312 = loc("<stdin>":4307:12)
#loc4313 = loc("<stdin>":4308:12)
#loc4314 = loc("<stdin>":4309:5)
#loc4315 = loc("<stdin>":4310:12)
#loc4316 = loc("<stdin>":4311:18)
#loc4317 = loc("<stdin>":4312:12)
#loc4318 = loc("<stdin>":4313:5)
#loc4319 = loc("<stdin>":4314:17)
#loc4320 = loc("<stdin>":4315:17)
#loc4321 = loc("<stdin>":4316:17)
#loc4322 = loc("<stdin>":4317:18)
#loc4323 = loc("<stdin>":4318:18)
#loc4324 = loc("<stdin>":4319:12)
#loc4325 = loc("<stdin>":4320:12)
#loc4326 = loc("<stdin>":4321:5)
#loc4327 = loc("<stdin>":4322:21)
#loc4328 = loc("<stdin>":4323:12)
#loc4329 = loc("<stdin>":4324:12)
#loc4330 = loc("<stdin>":4325:5)
#loc4331 = loc("<stdin>":4326:17)
#loc4332 = loc("<stdin>":4327:17)
#loc4333 = loc("<stdin>":4328:17)
#loc4334 = loc("<stdin>":4329:18)
#loc4335 = loc("<stdin>":4330:18)
#loc4336 = loc("<stdin>":4331:12)
#loc4337 = loc("<stdin>":4332:12)
#loc4338 = loc("<stdin>":4333:5)
#loc4339 = loc("<stdin>":4334:18)
#loc4340 = loc("<stdin>":4335:12)
#loc4341 = loc("<stdin>":4336:12)
#loc4342 = loc("<stdin>":4337:5)
#loc4343 = loc("<stdin>":4338:17)
#loc4344 = loc("<stdin>":4339:12)
#loc4345 = loc("<stdin>":4340:17)
#loc4346 = loc("<stdin>":4341:17)
#loc4347 = loc("<stdin>":4342:17)
#loc4348 = loc("<stdin>":4343:12)
#loc4349 = loc("<stdin>":4344:12)
#loc4350 = loc("<stdin>":4345:17)
#loc4351 = loc("<stdin>":4346:12)
#loc4352 = loc("<stdin>":4347:17)
#loc4353 = loc("<stdin>":4348:17)
#loc4354 = loc("<stdin>":4349:12)
#loc4355 = loc("<stdin>":4350:17)
#loc4356 = loc("<stdin>":4351:12)
#loc4357 = loc("<stdin>":4352:17)
#loc4358 = loc("<stdin>":4353:12)
#loc4359 = loc("<stdin>":4354:17)
#loc4360 = loc("<stdin>":4355:12)
#loc4361 = loc("<stdin>":4356:17)
#loc4362 = loc("<stdin>":4357:12)
#loc4363 = loc("<stdin>":4358:18)
#loc4364 = loc("<stdin>":4359:12)
#loc4365 = loc("<stdin>":4360:17)
#loc4366 = loc("<stdin>":4361:12)
#loc4367 = loc("<stdin>":4362:17)
#loc4368 = loc("<stdin>":4363:12)
#loc4369 = loc("<stdin>":4364:12)
#loc4370 = loc("<stdin>":4365:18)
#loc4371 = loc("<stdin>":4366:12)
#loc4372 = loc("<stdin>":4367:5)
#loc4373 = loc("<stdin>":4368:17)
#loc4374 = loc("<stdin>":4369:17)
#loc4375 = loc("<stdin>":4370:17)
#loc4376 = loc("<stdin>":4371:18)
#loc4377 = loc("<stdin>":4372:18)
#loc4378 = loc("<stdin>":4373:12)
#loc4379 = loc("<stdin>":4374:12)
#loc4380 = loc("<stdin>":4375:5)
#loc4381 = loc("<stdin>":4376:21)
#loc4382 = loc("<stdin>":4377:12)
#loc4383 = loc("<stdin>":4378:12)
#loc4384 = loc("<stdin>":4379:5)
#loc4385 = loc("<stdin>":4380:5)
#loc4386 = loc("<stdin>":4381:17)
#loc4387 = loc("<stdin>":4382:12)
#loc4388 = loc("<stdin>":4383:17)
#loc4389 = loc("<stdin>":4384:12)
#loc4390 = loc("<stdin>":4385:17)
#loc4391 = loc("<stdin>":4386:12)
#loc4392 = loc("<stdin>":4387:17)
#loc4393 = loc("<stdin>":4388:17)
#loc4394 = loc("<stdin>":4389:17)
#loc4395 = loc("<stdin>":4390:18)
#loc4396 = loc("<stdin>":4391:18)
#loc4397 = loc("<stdin>":4392:12)
#loc4398 = loc("<stdin>":4393:12)
#loc4399 = loc("<stdin>":4394:5)
#loc4400 = loc("<stdin>":4395:12)
#loc4401 = loc("<stdin>":4396:12)
#loc4402 = loc("<stdin>":4397:17)
#loc4403 = loc("<stdin>":4398:12)
#loc4404 = loc("<stdin>":4399:12)
#loc4405 = loc("<stdin>":4400:12)
#loc4406 = loc("<stdin>":4401:17)
#loc4407 = loc("<stdin>":4402:12)
#loc4408 = loc("<stdin>":4403:5)
#loc4409 = loc("<stdin>":4404:12)
#loc4410 = loc("<stdin>":4405:12)
#loc4411 = loc("<stdin>":4406:17)
#loc4412 = loc("<stdin>":4407:12)
#loc4413 = loc("<stdin>":4408:12)
#loc4414 = loc("<stdin>":4409:12)
#loc4415 = loc("<stdin>":4410:17)
#loc4416 = loc("<stdin>":4411:12)
#loc4417 = loc("<stdin>":4412:5)
#loc4418 = loc("<stdin>":4413:17)
#loc4419 = loc("<stdin>":4414:17)
#loc4420 = loc("<stdin>":4415:12)
#loc4421 = loc("<stdin>":4416:5)
#loc4422 = loc("<stdin>":4417:17)
#loc4423 = loc("<stdin>":4418:12)
#loc4424 = loc("<stdin>":4419:5)
#loc4425 = loc("<stdin>":4420:18)
#loc4426 = loc("<stdin>":4421:17)
#loc4427 = loc("<stdin>":4422:18)
#loc4428 = loc("<stdin>":4423:12)
#loc4429 = loc("<stdin>":4424:12)
#loc4430 = loc("<stdin>":4425:5)
#loc4431 = loc("<stdin>":4426:17)
#loc4432 = loc("<stdin>":4427:17)
#loc4433 = loc("<stdin>":4428:12)
#loc4434 = loc("<stdin>":4429:5)
#loc4435 = loc("<stdin>":4430:17)
#loc4436 = loc("<stdin>":4431:12)
#loc4437 = loc("<stdin>":4432:5)
#loc4438 = loc("<stdin>":4433:18)
#loc4439 = loc("<stdin>":4434:17)
#loc4440 = loc("<stdin>":4435:18)
#loc4441 = loc("<stdin>":4436:12)
#loc4442 = loc("<stdin>":4437:12)
#loc4443 = loc("<stdin>":4438:5)
#loc4444 = loc("<stdin>":4439:17)
#loc4445 = loc("<stdin>":4440:17)
#loc4446 = loc("<stdin>":4441:17)
#loc4447 = loc("<stdin>":4442:18)
#loc4448 = loc("<stdin>":4443:17)
#loc4449 = loc("<stdin>":4444:19)
#loc4450 = loc("<stdin>":4445:12)
#loc4451 = loc("<stdin>":4446:5)
#loc4452 = loc("<stdin>":4447:19)
#loc4453 = loc("<stdin>":4448:12)
#loc4454 = loc("<stdin>":4449:12)
#loc4455 = loc("<stdin>":4450:5)
#loc4456 = loc("<stdin>":4451:18)
#loc4457 = loc("<stdin>":4452:12)
#loc4458 = loc("<stdin>":4453:18)
#loc4459 = loc("<stdin>":4454:12)
#loc4460 = loc("<stdin>":4455:5)
#loc4461 = loc("<stdin>":4456:18)
#loc4462 = loc("<stdin>":4457:12)
#loc4463 = loc("<stdin>":4458:5)
#loc4464 = loc("<stdin>":4459:18)
#loc4465 = loc("<stdin>":4460:12)
#loc4466 = loc("<stdin>":4461:5)
#loc4467 = loc("<stdin>":4462:18)
#loc4468 = loc("<stdin>":4463:12)
#loc4469 = loc("<stdin>":4464:5)
#loc4470 = loc("<stdin>":4465:18)
#loc4471 = loc("<stdin>":4466:12)
#loc4472 = loc("<stdin>":4467:5)
#loc4473 = loc("<stdin>":4468:19)
#loc4474 = loc("<stdin>":4469:12)
#loc4475 = loc("<stdin>":4470:5)
#loc4476 = loc("<stdin>":4471:19)
#loc4477 = loc("<stdin>":4472:18)
#loc4478 = loc("<stdin>":4473:18)
#loc4479 = loc("<stdin>":4474:19)
#loc4480 = loc("<stdin>":4475:12)
#loc4481 = loc("<stdin>":4476:19)
#loc4482 = loc("<stdin>":4477:12)
#loc4483 = loc("<stdin>":4478:5)
#loc4484 = loc("<stdin>":4479:18)
#loc4485 = loc("<stdin>":4480:12)
#loc4486 = loc("<stdin>":4481:5)
#loc4487 = loc("<stdin>":4482:19)
#loc4488 = loc("<stdin>":4483:18)
#loc4489 = loc("<stdin>":4484:19)
#loc4490 = loc("<stdin>":4485:12)
#loc4491 = loc("<stdin>":4486:12)
#loc4492 = loc("<stdin>":4487:5)
#loc4493 = loc("<stdin>":4488:19)
#loc4494 = loc("<stdin>":4489:12)
#loc4495 = loc("<stdin>":4490:5)
#loc4496 = loc("<stdin>":4491:19)
#loc4497 = loc("<stdin>":4492:18)
#loc4498 = loc("<stdin>":4493:18)
#loc4499 = loc("<stdin>":4494:19)
#loc4500 = loc("<stdin>":4495:12)
#loc4501 = loc("<stdin>":4496:19)
#loc4502 = loc("<stdin>":4497:12)
#loc4503 = loc("<stdin>":4498:5)
#loc4504 = loc("<stdin>":4499:18)
#loc4505 = loc("<stdin>":4500:12)
#loc4506 = loc("<stdin>":4501:5)
#loc4507 = loc("<stdin>":4502:19)
#loc4508 = loc("<stdin>":4503:18)
#loc4509 = loc("<stdin>":4504:19)
#loc4510 = loc("<stdin>":4505:12)
#loc4511 = loc("<stdin>":4506:12)
#loc4512 = loc("<stdin>":4507:5)
#loc4513 = loc("<stdin>":4508:18)
#loc4514 = loc("<stdin>":4509:18)
#loc4515 = loc("<stdin>":4510:12)
#loc4516 = loc("<stdin>":4511:18)
#loc4517 = loc("<stdin>":4512:18)
#loc4518 = loc("<stdin>":4513:12)
#loc4519 = loc("<stdin>":4514:5)
#loc4520 = loc("<stdin>":4515:18)
#loc4521 = loc("<stdin>":4516:18)
#loc4522 = loc("<stdin>":4517:12)
#loc4523 = loc("<stdin>":4518:5)
#loc4524 = loc("<stdin>":4519:30)
#loc4525 = loc("<stdin>":4520:19)
#loc4526 = loc("<stdin>":4521:18)
#loc4527 = loc("<stdin>":4522:19)
#loc4528 = loc("<stdin>":4523:12)
#loc4529 = loc("<stdin>":4524:18)
#loc4530 = loc("<stdin>":4525:18)
#loc4531 = loc("<stdin>":4526:12)
#loc4532 = loc("<stdin>":4527:19)
#loc4533 = loc("<stdin>":4528:18)
#loc4534 = loc("<stdin>":4529:20)
#loc4535 = loc("<stdin>":4530:12)
#loc4536 = loc("<stdin>":4531:12)
#loc4537 = loc("<stdin>":4532:19)
#loc4538 = loc("<stdin>":4533:19)
#loc4539 = loc("<stdin>":4534:12)
#loc4540 = loc("<stdin>":4535:18)
#loc4541 = loc("<stdin>":4536:12)
#loc4542 = loc("<stdin>":4537:19)
#loc4543 = loc("<stdin>":4538:20)
#loc4544 = loc("<stdin>":4539:12)
#loc4545 = loc("<stdin>":4540:12)
#loc4546 = loc("<stdin>":4541:12)
#loc4547 = loc("<stdin>":4542:19)
#loc4548 = loc("<stdin>":4543:18)
#loc4549 = loc("<stdin>":4544:20)
#loc4550 = loc("<stdin>":4545:12)
#loc4551 = loc("<stdin>":4546:12)
#loc4552 = loc("<stdin>":4547:18)
#loc4553 = loc("<stdin>":4548:12)
#loc4554 = loc("<stdin>":4549:18)
#loc4555 = loc("<stdin>":4550:12)
#loc4556 = loc("<stdin>":4551:18)
#loc4557 = loc("<stdin>":4552:12)
#loc4558 = loc("<stdin>":4553:18)
#loc4559 = loc("<stdin>":4554:12)
#loc4560 = loc("<stdin>":4555:19)
#loc4561 = loc("<stdin>":4556:12)
#loc4562 = loc("<stdin>":4557:18)
#loc4563 = loc("<stdin>":4558:18)
#loc4564 = loc("<stdin>":4559:12)
#loc4565 = loc("<stdin>":4560:31)
#loc4566 = loc("<stdin>":4561:18)
#loc4567 = loc("<stdin>":4562:12)
#loc4568 = loc("<stdin>":4563:12)
#loc4569 = loc("<stdin>":4564:12)
#loc4570 = loc("<stdin>":4565:18)
#loc4571 = loc("<stdin>":4566:12)
#loc4572 = loc("<stdin>":4567:12)
#loc4573 = loc("<stdin>":4568:18)
#loc4574 = loc("<stdin>":4569:12)
#loc4575 = loc("<stdin>":4570:19)
#loc4576 = loc("<stdin>":4571:19)
#loc4577 = loc("<stdin>":4572:12)
#loc4578 = loc("<stdin>":4573:18)
#loc4579 = loc("<stdin>":4574:12)
#loc4580 = loc("<stdin>":4575:19)
#loc4581 = loc("<stdin>":4576:20)
#loc4582 = loc("<stdin>":4577:12)
#loc4583 = loc("<stdin>":4578:12)
#loc4584 = loc("<stdin>":4579:12)
#loc4585 = loc("<stdin>":4580:19)
#loc4586 = loc("<stdin>":4581:18)
#loc4587 = loc("<stdin>":4582:19)
#loc4588 = loc("<stdin>":4583:12)
#loc4589 = loc("<stdin>":4584:12)
#loc4590 = loc("<stdin>":4585:12)
#loc4591 = loc("<stdin>":4586:19)
#loc4592 = loc("<stdin>":4587:19)
#loc4593 = loc("<stdin>":4588:12)
#loc4594 = loc("<stdin>":4589:18)
#loc4595 = loc("<stdin>":4590:12)
#loc4596 = loc("<stdin>":4591:19)
#loc4597 = loc("<stdin>":4592:20)
#loc4598 = loc("<stdin>":4593:12)
#loc4599 = loc("<stdin>":4594:12)
#loc4600 = loc("<stdin>":4595:12)
#loc4601 = loc("<stdin>":4596:19)
#loc4602 = loc("<stdin>":4597:18)
#loc4603 = loc("<stdin>":4598:19)
#loc4604 = loc("<stdin>":4599:12)
#loc4605 = loc("<stdin>":4600:12)
#loc4606 = loc("<stdin>":4601:12)
#loc4607 = loc("<stdin>":4602:19)
#loc4608 = loc("<stdin>":4603:19)
#loc4609 = loc("<stdin>":4604:12)
#loc4610 = loc("<stdin>":4605:18)
#loc4611 = loc("<stdin>":4606:12)
#loc4612 = loc("<stdin>":4607:19)
#loc4613 = loc("<stdin>":4608:19)
#loc4614 = loc("<stdin>":4609:12)
#loc4615 = loc("<stdin>":4610:12)
#loc4616 = loc("<stdin>":4611:12)
#loc4617 = loc("<stdin>":4612:19)
#loc4618 = loc("<stdin>":4613:18)
#loc4619 = loc("<stdin>":4614:20)
#loc4620 = loc("<stdin>":4615:12)
#loc4621 = loc("<stdin>":4616:12)
#loc4622 = loc("<stdin>":4617:18)
#loc4623 = loc("<stdin>":4618:12)
#loc4624 = loc("<stdin>":4619:18)
#loc4625 = loc("<stdin>":4620:12)
#loc4626 = loc("<stdin>":4621:18)
#loc4627 = loc("<stdin>":4622:12)
#loc4628 = loc("<stdin>":4623:18)
#loc4629 = loc("<stdin>":4624:12)
#loc4630 = loc("<stdin>":4625:19)
#loc4631 = loc("<stdin>":4626:12)
#loc4632 = loc("<stdin>":4627:18)
#loc4633 = loc("<stdin>":4628:18)
#loc4634 = loc("<stdin>":4629:12)
#loc4635 = loc("<stdin>":4630:31)
#loc4636 = loc("<stdin>":4631:18)
#loc4637 = loc("<stdin>":4632:12)
#loc4638 = loc("<stdin>":4633:12)
#loc4639 = loc("<stdin>":4634:12)
#loc4640 = loc("<stdin>":4635:18)
#loc4641 = loc("<stdin>":4636:12)
#loc4642 = loc("<stdin>":4637:12)
#loc4643 = loc("<stdin>":4638:18)
#loc4644 = loc("<stdin>":4639:12)
#loc4645 = loc("<stdin>":4640:19)
#loc4646 = loc("<stdin>":4641:19)
#loc4647 = loc("<stdin>":4642:12)
#loc4648 = loc("<stdin>":4643:18)
#loc4649 = loc("<stdin>":4644:12)
#loc4650 = loc("<stdin>":4645:19)
#loc4651 = loc("<stdin>":4646:20)
#loc4652 = loc("<stdin>":4647:12)
#loc4653 = loc("<stdin>":4648:12)
#loc4654 = loc("<stdin>":4649:12)
#loc4655 = loc("<stdin>":4650:19)
#loc4656 = loc("<stdin>":4651:18)
#loc4657 = loc("<stdin>":4652:20)
#loc4658 = loc("<stdin>":4653:12)
#loc4659 = loc("<stdin>":4654:12)
#loc4660 = loc("<stdin>":4655:19)
#loc4661 = loc("<stdin>":4656:18)
#loc4662 = loc("<stdin>":4657:12)
#loc4663 = loc("<stdin>":4658:12)
#loc4664 = loc("<stdin>":4659:5)
#loc4665 = loc("<stdin>":4661:3)
#loc4666 = loc("<stdin>":4662:11)
#loc4667 = loc("<stdin>":4663:11)
#loc4668 = loc("<stdin>":4664:11)
#loc4669 = loc("<stdin>":4665:11)
#loc4670 = loc("<stdin>":4666:12)
#loc4671 = loc("<stdin>":4667:14)
#loc4672 = loc("<stdin>":4668:14)
#loc4673 = loc("<stdin>":4669:14)
#loc4674 = loc("<stdin>":4670:10)
#loc4675 = loc("<stdin>":4671:10)
#loc4679 = loc("<stdin>":4673:12)
#loc4680 = loc("<stdin>":4674:12)
#loc4681 = loc("<stdin>":4675:12)
#loc4682 = loc("<stdin>":4676:7)
#loc4683 = loc("<stdin>":4678:5)
#loc4684 = loc("<stdin>":4680:3)
#loc4685 = loc("<stdin>":4681:11)
#loc4686 = loc("<stdin>":4682:11)
#loc4687 = loc("<stdin>":4683:18)
#loc4688 = loc("<stdin>":4684:20)
#loc4689 = loc("<stdin>":4685:10)
#loc4690 = loc("<stdin>":4686:10)
#loc4691 = loc("<stdin>":4687:12)
#loc4692 = loc("<stdin>":4688:14)
#loc4693 = loc("<stdin>":4689:14)
#loc4694 = loc("<stdin>":4690:24)
#loc4695 = loc("<stdin>":4691:10)
#loc4696 = loc("<stdin>":4692:10)
#loc4697 = loc("<stdin>":4693:5)

{-#
  dialect_resources: {
    builtin: {
      __auto.constant_256_256_torch.float16: "…",
      __auto.constant_256_256_torch.float16$1: "…",
      __auto.constant_128_256_torch.float16: "…",
      __auto.constant_128_256_torch.float16$1: "…",
      __auto.constant_256_256_torch.float16$2: "…",
      __auto.constant_23_256_torch.float16: "…",
      __auto.constant_23_256_torch.float16$1: "…",
      __auto.constant_256_23_torch.float16: "…",
      __auto.constant_256_256_torch.float16$3: "…",
      __auto.constant_128_256_torch.float16$2: "…",
      __auto.constant_128_256_torch.float16$3: "…",
      __auto.constant_256_256_torch.float16$4: "…",
      __auto.constant_23_256_torch.float16$2: "…",
      __auto.constant_23_256_torch.float16$3: "…",
      __auto.constant_256_23_torch.float16$1: "…",
      __auto.constant_256_256_torch.float16$5: "…",
      __auto.constant_128_256_torch.float16$4: "…",
      __auto.constant_128_256_torch.float16$5: "…",
      __auto.constant_256_256_torch.float16$6: "…",
      __auto.constant_23_256_torch.float16$4: "…",
      __auto.constant_23_256_torch.float16$5: "…",
      __auto.constant_256_23_torch.float16$2: "…",
      __auto.constant_256_256_torch.float16$7: "…",
      torch_tensor_256_torch.float32: "…",
      torch_tensor_256_torch.float32_1: "…",
      torch_tensor_256_torch.float32_2: "…",
      torch_tensor_256_torch.float32_3: "…",
      torch_tensor_256_torch.float32_4: "…",
      torch_tensor_256_torch.float32_5: "…",
      torch_tensor_1_256_torch.float32: "…"
    }
  },
  external_resources: {
    mlir_reproducer: {
      pipeline: "builtin.module(iree-auto-input-conversion, iree-import-public, iree-import-ml-program, iree-sanitize-module-names, iree-convert-shard-to-flow, iree-input-conversion-demote-f64-to-f32, iree-abi-convert-streamable-ops, iree-abi-wrap-entry-points{invocation-model=sync}, inline{default-pipeline=canonicalize inlining-threshold=4294967295 max-iterations=4 }, util.func(canonicalize{  max-iterations=10 max-num-rewrites=-1 region-simplify=normal test-convergence=false top-down=true},cse),util.initializer(canonicalize{  max-iterations=10 max-num-rewrites=-1 region-simplify=normal test-convergence=false top-down=true},cse), symbol-dce, iree-hal-assign-target-devices{targetDevices={local}}, iree-hal-materialize-target-devices{defaultDevice=}, iree-hal-resolve-device-promises, iree-hal-resolve-device-aliases{target-registry=1}, iree-hal-verify-devices{target-registry=1}, util.func(iree-preprocessing-attr-based-pipeline,iree-global-opt-warn-on-uninitialized-values,iree-util-optimize-int-arithmetic{narrow-to-i32=false},iree-global-opt-quantized-conv-to-conv,iree-global-opt-quantized-matmul-to-matmul,iree-flow-canonicalize{cse-constants=true test-convergence=false},iree-global-opt-remove-zero-extent-tensors,iree-global-opt-detach-elementwise-from-named-ops,simplify-depthwise-conv),util.initializer(iree-preprocessing-attr-based-pipeline,iree-global-opt-warn-on-uninitialized-values,iree-util-optimize-int-arithmetic{narrow-to-i32=false},iree-global-opt-quantized-conv-to-conv,iree-global-opt-quantized-matmul-to-matmul,iree-flow-canonicalize{cse-constants=true test-convergence=false},iree-global-opt-remove-zero-extent-tensors,iree-global-opt-detach-elementwise-from-named-ops,simplify-depthwise-conv), iree-global-opt-erase-unused-linalg-operands, iree-global-opt-expand-tensor-shapes, util.func(convert-elementwise-to-linalg,iree-global-opt-raise-special-ops,iree-global-opt-decompose-concat{enable-concat-transposition=false},iree-global-opt-generalize-linalg-named-ops{enable-generalize-matmul=false}),util.initializer(convert-elementwise-to-linalg,iree-global-opt-raise-special-ops,iree-global-opt-decompose-concat{enable-concat-transposition=false},iree-global-opt-generalize-linalg-named-ops{enable-generalize-matmul=false}), iree-dispatch-creation-fold-unit-extent-dims, iree-global-opt-convert-strided-contraction-to-contraction, util.func(iree-global-opt-demote-contraction-inputs-to-bf16{demote-only=none},iree-flow-canonicalize{cse-constants=true test-convergence=false},cse,iree-global-opt-propagate-linalg-transpose{enable-aggressive-propagation=false enable-aggressive-propagation-through-conv=false enable-attention-v-transpose=true test-bubbling-only=false test-sinking-only=false},iree-flow-canonicalize{cse-constants=true test-convergence=false},cse,iree-dispatch-creation-annotate-data-tiling-hints,iree-dispatch-creation-set-encoding{encoding-option=default}),util.initializer(iree-global-opt-demote-contraction-inputs-to-bf16{demote-only=none},iree-flow-canonicalize{cse-constants=true test-convergence=false},cse,iree-global-opt-propagate-linalg-transpose{enable-aggressive-propagation=false enable-aggressive-propagation-through-conv=false enable-attention-v-transpose=true test-bubbling-only=false test-sinking-only=false},iree-flow-canonicalize{cse-constants=true test-convergence=false},cse,iree-dispatch-creation-annotate-data-tiling-hints,iree-dispatch-creation-set-encoding{encoding-option=default}), iree-global-opt-materialize-homogeneous-encodings, iree-flow-canonicalize{cse-constants=true test-convergence=false}, cse, iree-global-opt-simplify-pack-unpack, util.func(iree-global-opt-data-layout-propagation,iree-global-opt-generalize-linalg-named-ops{enable-generalize-matmul=false},iree-global-opt-loop-invariant-code-motion,iree-flow-canonicalize{cse-constants=true test-convergence=false},cse,iree-util-simplify-global-accesses,iree-util-apply-patterns),util.initializer(iree-global-opt-data-layout-propagation,iree-global-opt-generalize-linalg-named-ops{enable-generalize-matmul=false},iree-global-opt-loop-invariant-code-motion,iree-flow-canonicalize{cse-constants=true test-convergence=false},cse,iree-util-simplify-global-accesses,iree-util-apply-patterns), iree-util-fold-globals, iree-util-ipo, util.func(iree-util-optimize-int-arithmetic{narrow-to-i32=false},iree-flow-canonicalize{cse-constants=true test-convergence=false},cse),util.initializer(iree-util-optimize-int-arithmetic{narrow-to-i32=false},iree-flow-canonicalize{cse-constants=true test-convergence=false},cse), iree-util-hoist-into-globals{max-size-increase-threshold=1048576}, iree-consteval-jit-globals{target-registry=1}, func.func(iree-flow-inject-tensor-tracing),util.func(iree-flow-canonicalize{cse-constants=true test-convergence=false},cse,iree-global-opt-raise-special-ops,iree-flow-inject-tensor-tracing),util.initializer(iree-flow-canonicalize{cse-constants=true test-convergence=false},cse,iree-global-opt-raise-special-ops,iree-flow-inject-tensor-tracing), iree-dispatch-creation-tensor-pad-to-tensor-insert-slice{skip-one-linalg-use-case=false}, iree-util-fixed-point-iterator{max-iterations=10 pipeline=builtin.module(func.func(iree-flow-canonicalize{cse-constants=true test-convergence=false},cse,iree-util-simplify-global-accesses,iree-util-apply-patterns),util.initializer(iree-flow-canonicalize{cse-constants=true test-convergence=false},cse,iree-util-simplify-global-accesses,iree-util-apply-patterns),util.func(iree-flow-canonicalize{cse-constants=true test-convergence=false},cse,iree-util-simplify-global-accesses,iree-util-apply-patterns),iree-util-fold-globals,iree-util-fuse-globals,iree-util-ipo)}, func.func(iree-dispatch-creation-fusion-preprocessing,iree-flow-canonicalize{cse-constants=true test-convergence=false},cse,iree-dispatch-creation-elementwise-op-fusion{fuse-multi-reduction=true fuse-truncate-ops=false intra-dispatch=false},iree-flow-canonicalize{cse-constants=true test-convergence=false},cse,iree-dispatch-creation-bubble-up-expand-shapes{enable-bubble-up-expand-shapes-across-reduction-ops=false},iree-flow-canonicalize{cse-constants=true test-convergence=false},cse,iree-dispatch-creation-elementwise-op-fusion{fuse-multi-reduction=true fuse-truncate-ops=false intra-dispatch=false},iree-flow-canonicalize{cse-constants=true test-convergence=false},cse,iree-dispatch-creation-sink-reshapes,iree-flow-canonicalize{cse-constants=true test-convergence=false},cse,iree-dispatch-creation-fuse-multi-use-elementwise-producer{intra-dispatch=false num-iterations=2},iree-flow-canonicalize{cse-constants=true test-convergence=false},cse,iree-dispatch-creation-split-reduction-ops,iree-dispatch-creation-form-split-reduction-dispatches{},iree-dispatch-creation-transpose-generic-ops),util.func(iree-dispatch-creation-fusion-preprocessing,iree-flow-canonicalize{cse-constants=true test-convergence=false},cse,iree-dispatch-creation-elementwise-op-fusion{fuse-multi-reduction=true fuse-truncate-ops=false intra-dispatch=false},iree-flow-canonicalize{cse-constants=true test-convergence=false},cse,iree-dispatch-creation-bubble-up-expand-shapes{enable-bubble-up-expand-shapes-across-reduction-ops=false},iree-flow-canonicalize{cse-constants=true test-convergence=false},cse,iree-dispatch-creation-elementwise-op-fusion{fuse-multi-reduction=true fuse-truncate-ops=false intra-dispatch=false},iree-flow-canonicalize{cse-constants=true test-convergence=false},cse,iree-dispatch-creation-sink-reshapes,iree-flow-canonicalize{cse-constants=true test-convergence=false},cse,iree-dispatch-creation-fuse-multi-use-elementwise-producer{intra-dispatch=false num-iterations=2},iree-flow-canonicalize{cse-constants=true test-convergence=false},cse,iree-dispatch-creation-split-reduction-ops,iree-dispatch-creation-form-split-reduction-dispatches{},iree-dispatch-creation-transpose-generic-ops),util.initializer(iree-dispatch-creation-fusion-preprocessing,iree-flow-canonicalize{cse-constants=true test-convergence=false},cse,iree-dispatch-creation-elementwise-op-fusion{fuse-multi-reduction=true fuse-truncate-ops=false intra-dispatch=false},iree-flow-canonicalize{cse-constants=true test-convergence=false},cse,iree-dispatch-creation-bubble-up-expand-shapes{enable-bubble-up-expand-shapes-across-reduction-ops=false},iree-flow-canonicalize{cse-constants=true test-convergence=false},cse,iree-dispatch-creation-elementwise-op-fusion{fuse-multi-reduction=true fuse-truncate-ops=false intra-dispatch=false},iree-flow-canonicalize{cse-constants=true test-convergence=false},cse,iree-dispatch-creation-sink-reshapes,iree-flow-canonicalize{cse-constants=true test-convergence=false},cse,iree-dispatch-creation-fuse-multi-use-elementwise-producer{intra-dispatch=false num-iterations=2},iree-flow-canonicalize{cse-constants=true test-convergence=false},cse,iree-dispatch-creation-split-reduction-ops,iree-dispatch-creation-form-split-reduction-dispatches{},iree-dispatch-creation-transpose-generic-ops), iree-util-hoist-into-globals{max-size-increase-threshold=0}, func.func(iree-flow-canonicalize{cse-constants=true test-convergence=false},cse,iree-dispatch-creation-form-scalar-dispatches,iree-dispatch-creation-form-dispatch-regions{aggressive-fusion=false fuse-pad-with-consumers=false fuse-pad-with-producers=false},iree-dispatch-creation-elementwise-op-fusion{fuse-multi-reduction=false fuse-truncate-ops=true intra-dispatch=true},iree-dispatch-creation-fuse-multi-use-elementwise-producer{intra-dispatch=true num-iterations=2},iree-dispatch-creation-clone-producers-into-dispatch-regions{aggressive=false},iree-dispatch-creation-collapse-dimensions{max-iterations=10},iree-dispatch-creation-hoist-uniform-scalar-compute,iree-dispatch-creation-convert-encoding-to-flow),util.func(iree-flow-canonicalize{cse-constants=true test-convergence=false},cse,iree-dispatch-creation-form-scalar-dispatches,iree-dispatch-creation-form-dispatch-regions{aggressive-fusion=false fuse-pad-with-consumers=false fuse-pad-with-producers=false},iree-dispatch-creation-elementwise-op-fusion{fuse-multi-reduction=false fuse-truncate-ops=true intra-dispatch=true},iree-dispatch-creation-fuse-multi-use-elementwise-producer{intra-dispatch=true num-iterations=2},iree-dispatch-creation-clone-producers-into-dispatch-regions{aggressive=false},iree-dispatch-creation-collapse-dimensions{max-iterations=10},iree-dispatch-creation-hoist-uniform-scalar-compute,iree-dispatch-creation-convert-encoding-to-flow),util.initializer(iree-flow-canonicalize{cse-constants=true test-convergence=false},cse,iree-dispatch-creation-form-scalar-dispatches,iree-dispatch-creation-form-dispatch-regions{aggressive-fusion=false fuse-pad-with-consumers=false fuse-pad-with-producers=false},iree-dispatch-creation-elementwise-op-fusion{fuse-multi-reduction=false fuse-truncate-ops=true intra-dispatch=true},iree-dispatch-creation-fuse-multi-use-elementwise-producer{intra-dispatch=true num-iterations=2},iree-dispatch-creation-clone-producers-into-dispatch-regions{aggressive=false},iree-dispatch-creation-collapse-dimensions{max-iterations=10},iree-dispatch-creation-hoist-uniform-scalar-compute,iree-dispatch-creation-convert-encoding-to-flow), iree-util-hoist-into-globals{max-size-increase-threshold=0}, func.func(iree-dispatch-creation-convert-dispatch-regions-to-workgroups,iree-dispatch-creation-convert-tensor-to-flow,cse,iree-flow-canonicalize{cse-constants=true test-convergence=false},iree-dispatch-creation-materialize-default-workgroup-count-region,iree-dispatch-creation-bitcast-unsupported-element-types,cse,iree-flow-canonicalize{cse-constants=true test-convergence=false}),util.func(iree-dispatch-creation-convert-dispatch-regions-to-workgroups,iree-dispatch-creation-convert-tensor-to-flow,cse,iree-flow-canonicalize{cse-constants=true test-convergence=false},iree-dispatch-creation-materialize-default-workgroup-count-region,iree-dispatch-creation-bitcast-unsupported-element-types,cse,iree-flow-canonicalize{cse-constants=true test-convergence=false}),util.initializer(iree-dispatch-creation-convert-dispatch-regions-to-workgroups,iree-dispatch-creation-convert-tensor-to-flow,cse,iree-flow-canonicalize{cse-constants=true test-convergence=false},iree-dispatch-creation-materialize-default-workgroup-count-region,iree-dispatch-creation-bitcast-unsupported-element-types,cse,iree-flow-canonicalize{cse-constants=true test-convergence=false}), iree-verify-input-legality, func.func(iree-flow-initialize-empty-tensors{zero-fill=false},iree-flow-capture-dynamic-dims,iree-flow-canonicalize{cse-constants=true test-convergence=false},cse),util.func(iree-flow-initialize-empty-tensors{zero-fill=false},iree-flow-capture-dynamic-dims,iree-flow-canonicalize{cse-constants=true test-convergence=false},cse),util.initializer(iree-flow-initialize-empty-tensors{zero-fill=false},iree-flow-capture-dynamic-dims,iree-flow-canonicalize{cse-constants=true test-convergence=false},cse), iree-flow-outline-dispatch-externs, iree-flow-outline-dispatch-regions, iree-flow-annotate-dispatches, flow.executable(iree-util-strip-debug-ops),func.func(iree-flow-canonicalize{cse-constants=true test-convergence=false}),util.func(iree-flow-canonicalize{cse-constants=true test-convergence=false}),util.initializer(iree-flow-canonicalize{cse-constants=true test-convergence=false}), iree-flow-deduplicate-executables, func.func(iree-flow-inject-tensor-tracing,iree-flow-cleanup-tensor-shapes),util.func(iree-flow-inject-tensor-tracing,iree-flow-cleanup-tensor-shapes),util.initializer(iree-flow-inject-tensor-tracing,iree-flow-cleanup-tensor-shapes), iree-util-fixed-point-iterator{max-iterations=10 pipeline=builtin.module(iree-flow-outline-constants,func.func(iree-util-optimize-int-arithmetic{narrow-to-i32=false},iree-flow-canonicalize{cse-constants=true test-convergence=false},cse,iree-util-simplify-global-accesses,iree-util-apply-patterns),util.initializer(iree-util-optimize-int-arithmetic{narrow-to-i32=false},iree-flow-canonicalize{cse-constants=true test-convergence=false},cse,iree-util-simplify-global-accesses,iree-util-apply-patterns),util.func(iree-util-optimize-int-arithmetic{narrow-to-i32=false},iree-flow-canonicalize{cse-constants=true test-convergence=false},cse,iree-util-simplify-global-accesses,iree-util-apply-patterns),iree-util-fold-globals,iree-util-fuse-globals,iree-util-ipo)}, flow.executable(), symbol-dce, iree-stream-verify-input, func.func(canonicalize{  max-iterations=10 max-num-rewrites=-1 region-simplify=normal test-convergence=false top-down=true},cse,iree-util-optimize-int-arithmetic{narrow-to-i32=false},iree-util-simplify-global-accesses,iree-util-apply-patterns),util.func(canonicalize{  max-iterations=10 max-num-rewrites=-1 region-simplify=normal test-convergence=false top-down=true},cse,iree-util-optimize-int-arithmetic{narrow-to-i32=false},iree-util-simplify-global-accesses,iree-util-apply-patterns),util.initializer(canonicalize{  max-iterations=10 max-num-rewrites=-1 region-simplify=normal test-convergence=false top-down=true},cse,iree-util-optimize-int-arithmetic{narrow-to-i32=false},iree-util-simplify-global-accesses,iree-util-apply-patterns), iree-util-fold-globals, iree-util-fuse-globals, iree-util-ipo, iree-stream-clone-to-consumers, iree-stream-conversion, iree-stream-verify-lowering-to-tensors, inline{default-pipeline=canonicalize inlining-threshold=4294967295 max-iterations=4 }, func.func(canonicalize{  max-iterations=10 max-num-rewrites=-1 region-simplify=normal test-convergence=false top-down=true},cse,iree-util-optimize-int-arithmetic{narrow-to-i32=false},iree-util-simplify-global-accesses,iree-util-apply-patterns),util.func(canonicalize{  max-iterations=10 max-num-rewrites=-1 region-simplify=normal test-convergence=false top-down=true},cse,iree-util-optimize-int-arithmetic{narrow-to-i32=false},iree-util-simplify-global-accesses,iree-util-apply-patterns),util.initializer(canonicalize{  max-iterations=10 max-num-rewrites=-1 region-simplify=normal test-convergence=false top-down=true},cse,iree-util-optimize-int-arithmetic{narrow-to-i32=false},iree-util-simplify-global-accesses,iree-util-apply-patterns), iree-util-fold-globals, iree-util-fuse-globals, iree-util-ipo, iree-util-combine-initializers, iree-stream-specialize-encodings, func.func(iree-stream-encode-host-tensors),stream.executable(iree-stream-encode-device-tensors),util.func(iree-stream-encode-host-tensors),util.initializer(iree-stream-encode-host-tensors), iree-stream-materialize-encodings, func.func(canonicalize{  max-iterations=10 max-num-rewrites=-1 region-simplify=normal test-convergence=false top-down=true},cse,iree-util-optimize-int-arithmetic{narrow-to-i32=false},iree-util-simplify-global-accesses,iree-util-apply-patterns),util.func(canonicalize{  max-iterations=10 max-num-rewrites=-1 region-simplify=normal test-convergence=false top-down=true},cse,iree-util-optimize-int-arithmetic{narrow-to-i32=false},iree-util-simplify-global-accesses,iree-util-apply-patterns),util.initializer(canonicalize{  max-iterations=10 max-num-rewrites=-1 region-simplify=normal test-convergence=false top-down=true},cse,iree-util-optimize-int-arithmetic{narrow-to-i32=false},iree-util-simplify-global-accesses,iree-util-apply-patterns), iree-util-fold-globals, iree-util-fuse-globals, iree-util-ipo, iree-stream-verify-lowering-to-async-resources, iree-stream-elide-async-transfers, func.func(iree-stream-materialize-copy-on-write,canonicalize{  max-iterations=10 max-num-rewrites=-1 region-simplify=normal test-convergence=false top-down=true}),util.func(iree-stream-materialize-copy-on-write,canonicalize{  max-iterations=10 max-num-rewrites=-1 region-simplify=normal test-convergence=false top-down=true}),util.initializer(iree-stream-materialize-copy-on-write,canonicalize{  max-iterations=10 max-num-rewrites=-1 region-simplify=normal test-convergence=false top-down=true}), iree-stream-elide-async-copies, func.func(canonicalize{  max-iterations=10 max-num-rewrites=-1 region-simplify=normal test-convergence=false top-down=true},iree-stream-emplace-allocations),util.func(canonicalize{  max-iterations=10 max-num-rewrites=-1 region-simplify=normal test-convergence=false top-down=true},iree-stream-emplace-allocations),util.initializer(canonicalize{  max-iterations=10 max-num-rewrites=-1 region-simplify=normal test-convergence=false top-down=true},iree-stream-emplace-allocations), iree-stream-refine-usage, func.func(canonicalize{  max-iterations=10 max-num-rewrites=-1 region-simplify=normal test-convergence=false top-down=true},cse,iree-util-optimize-int-arithmetic{narrow-to-i32=false},iree-util-simplify-global-accesses,iree-util-apply-patterns),util.func(canonicalize{  max-iterations=10 max-num-rewrites=-1 region-simplify=normal test-convergence=false top-down=true},cse,iree-util-optimize-int-arithmetic{narrow-to-i32=false},iree-util-simplify-global-accesses,iree-util-apply-patterns),util.initializer(canonicalize{  max-iterations=10 max-num-rewrites=-1 region-simplify=normal test-convergence=false top-down=true},cse,iree-util-optimize-int-arithmetic{narrow-to-i32=false},iree-util-simplify-global-accesses,iree-util-apply-patterns), iree-util-fold-globals, iree-util-fuse-globals, iree-util-ipo, iree-stream-verify-async-access-ranges, func.func(iree-stream-schedule-execution,iree-stream-schedule-concurrency),util.func(iree-stream-schedule-execution,iree-stream-schedule-concurrency),util.initializer(iree-stream-schedule-execution,iree-stream-schedule-concurrency), iree-stream-sync-initializers, iree-stream-propagate-timepoints, iree-stream-materialize-builtins, func.func(canonicalize{  max-iterations=10 max-num-rewrites=-1 region-simplify=normal test-convergence=false top-down=true},cse,iree-util-optimize-int-arithmetic{narrow-to-i32=false},iree-util-simplify-global-accesses,iree-util-apply-patterns),util.func(canonicalize{  max-iterations=10 max-num-rewrites=-1 region-simplify=normal test-convergence=false top-down=true},cse,iree-util-optimize-int-arithmetic{narrow-to-i32=false},iree-util-simplify-global-accesses,iree-util-apply-patterns),util.initializer(canonicalize{  max-iterations=10 max-num-rewrites=-1 region-simplify=normal test-convergence=false top-down=true},cse,iree-util-optimize-int-arithmetic{narrow-to-i32=false},iree-util-simplify-global-accesses,iree-util-apply-patterns), iree-util-fold-globals, iree-util-fuse-globals, iree-util-ipo, iree-stream-verify-lowering-to-async, iree-stream-schedule-allocation, func.func(iree-stream-pack-constants,iree-stream-layout-slices,canonicalize{  max-iterations=10 max-num-rewrites=-1 region-simplify=normal test-convergence=false top-down=true}),util.func(iree-stream-pack-constants,iree-stream-layout-slices,canonicalize{  max-iterations=10 max-num-rewrites=-1 region-simplify=normal test-convergence=false top-down=true}),util.initializer(iree-stream-pack-constants,iree-stream-layout-slices,canonicalize{  max-iterations=10 max-num-rewrites=-1 region-simplify=normal test-convergence=false top-down=true}), iree-util-propagate-subranges, func.func(canonicalize{  max-iterations=10 max-num-rewrites=-1 region-simplify=normal test-convergence=false top-down=true},cse,iree-util-optimize-int-arithmetic{narrow-to-i32=false},iree-util-simplify-global-accesses,iree-util-apply-patterns),util.func(canonicalize{  max-iterations=10 max-num-rewrites=-1 region-simplify=normal test-convergence=false top-down=true},cse,iree-util-optimize-int-arithmetic{narrow-to-i32=false},iree-util-simplify-global-accesses,iree-util-apply-patterns),util.initializer(canonicalize{  max-iterations=10 max-num-rewrites=-1 region-simplify=normal test-convergence=false top-down=true},cse,iree-util-optimize-int-arithmetic{narrow-to-i32=false},iree-util-simplify-global-accesses,iree-util-apply-patterns), iree-util-fold-globals, iree-util-fuse-globals, iree-util-ipo, iree-stream-automatic-reference-counting, iree-stream-verify-lowering-to-cmd, func.func(canonicalize{  max-iterations=10 max-num-rewrites=-1 region-simplify=normal test-convergence=false top-down=true},cse,iree-util-optimize-int-arithmetic{narrow-to-i32=false},iree-util-simplify-global-accesses,iree-util-apply-patterns),util.func(canonicalize{  max-iterations=10 max-num-rewrites=-1 region-simplify=normal test-convergence=false top-down=true},cse,iree-util-optimize-int-arithmetic{narrow-to-i32=false},iree-util-simplify-global-accesses,iree-util-apply-patterns),util.initializer(canonicalize{  max-iterations=10 max-num-rewrites=-1 region-simplify=normal test-convergence=false top-down=true},cse,iree-util-optimize-int-arithmetic{narrow-to-i32=false},iree-util-simplify-global-accesses,iree-util-apply-patterns), iree-util-fold-globals, iree-util-fuse-globals, iree-util-ipo, func.func(convert-scf-to-cf,iree-stream-reuse-allocations),util.func(convert-scf-to-cf,iree-stream-reuse-allocations),util.initializer(convert-scf-to-cf,iree-stream-reuse-allocations), iree-util-fixed-point-iterator{max-iterations=10 pipeline=builtin.module(func.func(canonicalize{  max-iterations=10 max-num-rewrites=-1 region-simplify=normal test-convergence=false top-down=true},cse,iree-util-optimize-int-arithmetic{narrow-to-i32=false},iree-util-simplify-global-accesses,iree-util-apply-patterns),util.initializer(canonicalize{  max-iterations=10 max-num-rewrites=-1 region-simplify=normal test-convergence=false top-down=true},cse,iree-util-optimize-int-arithmetic{narrow-to-i32=false},iree-util-simplify-global-accesses,iree-util-apply-patterns),util.func(canonicalize{  max-iterations=10 max-num-rewrites=-1 region-simplify=normal test-convergence=false top-down=true},cse,iree-util-optimize-int-arithmetic{narrow-to-i32=false},iree-util-simplify-global-accesses,iree-util-apply-patterns),iree-util-fold-globals,iree-util-fuse-globals,iree-util-ipo,iree-stream-elide-timepoints)}, iree-stream-fuse-dispatch-bindings, iree-stream-annotate-dispatch-arguments, iree-stream-annotate-dispatch-assumptions, iree-stream-pack-dispatch-operands, func.func(canonicalize{  max-iterations=10 max-num-rewrites=-1 region-simplify=normal test-convergence=false top-down=true},cse,iree-util-optimize-int-arithmetic{narrow-to-i32=false},iree-util-simplify-global-accesses,iree-util-apply-patterns),util.func(canonicalize{  max-iterations=10 max-num-rewrites=-1 region-simplify=normal test-convergence=false top-down=true},cse,iree-util-optimize-int-arithmetic{narrow-to-i32=false},iree-util-simplify-global-accesses,iree-util-apply-patterns),util.initializer(canonicalize{  max-iterations=10 max-num-rewrites=-1 region-simplify=normal test-convergence=false top-down=true},cse,iree-util-optimize-int-arithmetic{narrow-to-i32=false},iree-util-simplify-global-accesses,iree-util-apply-patterns), iree-util-fold-globals, iree-util-fuse-globals, iree-util-ipo, iree-stream-fold-uniform-operands, func.func(canonicalize{  max-iterations=10 max-num-rewrites=-1 region-simplify=normal test-convergence=false top-down=true},cse,iree-util-optimize-int-arithmetic{narrow-to-i32=false},iree-util-simplify-global-accesses,iree-util-apply-patterns),util.func(canonicalize{  max-iterations=10 max-num-rewrites=-1 region-simplify=normal test-convergence=false top-down=true},cse,iree-util-optimize-int-arithmetic{narrow-to-i32=false},iree-util-simplify-global-accesses,iree-util-apply-patterns),util.initializer(canonicalize{  max-iterations=10 max-num-rewrites=-1 region-simplify=normal test-convergence=false top-down=true},cse,iree-util-optimize-int-arithmetic{narrow-to-i32=false},iree-util-simplify-global-accesses,iree-util-apply-patterns), iree-util-fold-globals, iree-util-fuse-globals, iree-util-ipo, symbol-dce, iree-hal-assign-target-devices{targetDevices={local}}, iree-hal-materialize-target-devices{defaultDevice=}, iree-hal-resolve-device-promises, iree-hal-resolve-device-aliases{target-registry=1}, iree-hal-verify-devices{target-registry=1}, func.func(canonicalize{  max-iterations=10 max-num-rewrites=-1 region-simplify=normal test-convergence=false top-down=true},cse,iree-util-simplify-global-accesses,iree-util-apply-patterns),util.func(canonicalize{  max-iterations=10 max-num-rewrites=-1 region-simplify=normal test-convergence=false top-down=true},cse,iree-util-simplify-global-accesses,iree-util-apply-patterns),util.initializer(canonicalize{  max-iterations=10 max-num-rewrites=-1 region-simplify=normal test-convergence=false top-down=true},cse,iree-util-simplify-global-accesses,iree-util-apply-patterns), iree-util-fold-globals, iree-util-fuse-globals, iree-hal-verify-devices{target-registry=1}, iree-hal-materialize-interfaces, iree-hal-prune-executables, hal.executable(iree-hal-configure-executables{target-registry=1},iree-hal-translate-all-executables{target-registry=1}), iree-hal-conversion, iree-hal-outline-memoize-regions, func.func(canonicalize{  max-iterations=10 max-num-rewrites=-1 region-simplify=normal test-convergence=false top-down=true},cse,iree-util-simplify-global-accesses,iree-util-apply-patterns),util.func(canonicalize{  max-iterations=10 max-num-rewrites=-1 region-simplify=normal test-convergence=false top-down=true},cse,iree-util-simplify-global-accesses,iree-util-apply-patterns),util.initializer(canonicalize{  max-iterations=10 max-num-rewrites=-1 region-simplify=normal test-convergence=false top-down=true},cse,iree-util-simplify-global-accesses,iree-util-apply-patterns), iree-util-fold-globals, iree-util-fuse-globals, iree-hal-prune-executables, iree-hal-link-all-executables{target-registry=1}, hal.executable(hal.executable.variant(iree-hal-hoist-executable-objects)), iree-hal-resolve-export-ordinals, iree-hal-materialize-resource-caches, iree-hal-resolve-topology-queries, iree-hal-memoize-device-selection, iree-hal-memoize-device-queries, func.func(canonicalize{  max-iterations=10 max-num-rewrites=-1 region-simplify=normal test-convergence=false top-down=true},cse,iree-util-simplify-global-accesses,iree-util-apply-patterns),util.func(canonicalize{  max-iterations=10 max-num-rewrites=-1 region-simplify=normal test-convergence=false top-down=true},cse,iree-util-simplify-global-accesses,iree-util-apply-patterns),util.initializer(canonicalize{  max-iterations=10 max-num-rewrites=-1 region-simplify=normal test-convergence=false top-down=true},cse,iree-util-simplify-global-accesses,iree-util-apply-patterns), iree-util-fold-globals, iree-util-fuse-globals, func.func(iree-hal-elide-redundant-commands),util.func(iree-hal-elide-redundant-commands),util.initializer(iree-hal-elide-redundant-commands), iree-hal-initialize-devices{target-registry=1}, affine-expand-index-ops, lower-affine, func.func(convert-scf-to-cf),hal.executable(iree-hal-serialize-all-executables{debug-level=2 dump-binaries-path= dump-intermediates-path= target-registry=1}),util.func(convert-scf-to-cf),util.initializer(convert-scf-to-cf), iree-hal-prune-executables, symbol-dce, iree-util-fixed-point-iterator{max-iterations=10 pipeline=builtin.module(func.func(canonicalize{  max-iterations=10 max-num-rewrites=-1 region-simplify=normal test-convergence=false top-down=true},cse,iree-util-simplify-global-accesses,iree-util-apply-patterns),util.initializer(canonicalize{  max-iterations=10 max-num-rewrites=-1 region-simplify=normal test-convergence=false top-down=true},cse,iree-util-simplify-global-accesses,iree-util-apply-patterns),util.func(canonicalize{  max-iterations=10 max-num-rewrites=-1 region-simplify=normal test-convergence=false top-down=true},cse,iree-util-simplify-global-accesses,iree-util-apply-patterns),iree-util-fold-globals,iree-util-fuse-globals,iree-util-ipo)}, inline{default-pipeline=canonicalize inlining-threshold=4294967295 max-iterations=4 }, symbol-dce, iree-util-combine-initializers, func.func(scf-for-loop-canonicalization,affine-loop-coalescing,loop-invariant-code-motion,convert-scf-to-cf,affine-expand-index-ops,lower-affine),util.func(scf-for-loop-canonicalization,loop-invariant-code-motion,convert-scf-to-cf,affine-expand-index-ops,lower-affine),util.initializer(scf-for-loop-canonicalization,loop-invariant-code-motion,convert-scf-to-cf,affine-expand-index-ops,lower-affine), arith-unsigned-when-equivalent, iree-util-propagate-subranges, func.func(canonicalize{  max-iterations=10 max-num-rewrites=-1 region-simplify=normal test-convergence=false top-down=true},cse),util.func(canonicalize{  max-iterations=10 max-num-rewrites=-1 region-simplify=normal test-convergence=false top-down=true},cse),util.initializer(canonicalize{  max-iterations=10 max-num-rewrites=-1 region-simplify=normal test-convergence=false top-down=true},cse),vm.module(iree-vm-drop-unused-calls), symbol-dce, func.func(iree-util-simplify-global-accesses,iree-util-apply-patterns),util.func(iree-util-simplify-global-accesses,iree-util-apply-patterns),util.initializer(iree-util-simplify-global-accesses,iree-util-apply-patterns), iree-util-fold-globals, iree-util-fuse-globals, iree-vm-conversion{f32-extension=true f64-extension=true index-bits=64 optimize-for-stack-size=false truncate-unsupported-floats=true}, func.func(canonicalize{  max-iterations=10 max-num-rewrites=-1 region-simplify=normal test-convergence=false top-down=true},cse),util.func(canonicalize{  max-iterations=10 max-num-rewrites=-1 region-simplify=normal test-convergence=false top-down=true},cse),util.initializer(canonicalize{  max-iterations=10 max-num-rewrites=-1 region-simplify=normal test-convergence=false top-down=true},cse),vm.module(iree-vm-reify-rodata-tables,iree-vm-hoist-inlined-rodata,iree-vm-deduplicate-rodata,iree-vm-drop-unused-calls), symbol-dce, func.func(iree-util-simplify-global-accesses,iree-util-apply-patterns),util.func(iree-util-simplify-global-accesses,iree-util-apply-patterns),util.initializer(iree-util-simplify-global-accesses,iree-util-apply-patterns), iree-util-fold-globals, iree-util-fuse-globals, vm.module(iree-vm-resolve-rodata-loads), inline{default-pipeline=canonicalize inlining-threshold=4294967295 max-iterations=4 }, symbol-dce, func.func(canonicalize{  max-iterations=10 max-num-rewrites=-1 region-simplify=normal test-convergence=false top-down=true},cse),util.func(canonicalize{  max-iterations=10 max-num-rewrites=-1 region-simplify=normal test-convergence=false top-down=true},cse),util.initializer(canonicalize{  max-iterations=10 max-num-rewrites=-1 region-simplify=normal test-convergence=false top-down=true},cse),vm.module(iree-vm-drop-unused-calls), symbol-dce, func.func(iree-util-simplify-global-accesses,iree-util-apply-patterns),util.func(iree-util-simplify-global-accesses,iree-util-apply-patterns),util.initializer(iree-util-simplify-global-accesses,iree-util-apply-patterns), iree-util-fold-globals, iree-util-fuse-globals, vm.module(iree-vm-global-initialization), canonicalize{  max-iterations=10 max-num-rewrites=-1 region-simplify=normal test-convergence=false top-down=true}, cse, canonicalize{  max-iterations=10 max-num-rewrites=-1 region-simplify=normal test-convergence=false top-down=true}, vm.module(iree-vm-drop-empty-module-initializers), iree-util-drop-compiler-hints{keep-assume-int=false})",
      disable_threading: false,
      verify_each: true
    }
  }
#-}
